node {
  name: "parallel_read/filenames/Const"
  op: "Const"
  attr {
    key: "_output_shapes"
    value {
      list {
        shape {
          dim {
            size: 1024
          }
        }
      }
    }
  }
  attr {
    key: "dtype"
    value {
      type: DT_STRING
    }
  }
  attr {
    key: "value"
    value {
      tensor {
        dtype: DT_STRING
        tensor_shape {
          dim {
            size: 1024
          }
        }
        string_val: "../datasets/train-00187-of-01024"
        string_val: "../datasets/train-00186-of-01024"
        string_val: "../datasets/train-00549-of-01024"
        string_val: "../datasets/train-00548-of-01024"
        string_val: "../datasets/train-00843-of-01024"
        string_val: "../datasets/train-00842-of-01024"
        string_val: "../datasets/train-01021-of-01024"
        string_val: "../datasets/train-01020-of-01024"
        string_val: "../datasets/train-00441-of-01024"
        string_val: "../datasets/train-00627-of-01024"
        string_val: "../datasets/train-00626-of-01024"
        string_val: "../datasets/train-00440-of-01024"
        string_val: "../datasets/train-00373-of-01024"
        string_val: "../datasets/train-00115-of-01024"
        string_val: "../datasets/train-00114-of-01024"
        string_val: "../datasets/train-00372-of-01024"
        string_val: "../datasets/train-00054-of-01024"
        string_val: "../datasets/train-00232-of-01024"
        string_val: "../datasets/train-00233-of-01024"
        string_val: "../datasets/train-00055-of-01024"
        string_val: "../datasets/train-00766-of-01024"
        string_val: "../datasets/train-00990-of-01024"
        string_val: "../datasets/train-00500-of-01024"
        string_val: "../datasets/train-00991-of-01024"
        string_val: "../datasets/train-00501-of-01024"
        string_val: "../datasets/train-00767-of-01024"
        string_val: "../datasets/train-00592-of-01024"
        string_val: "../datasets/train-00902-of-01024"
        string_val: "../datasets/train-00593-of-01024"
        string_val: "../datasets/train-00903-of-01024"
        string_val: "../datasets/train-00408-of-01024"
        string_val: "../datasets/train-00898-of-01024"
        string_val: "../datasets/train-00409-of-01024"
        string_val: "../datasets/train-00899-of-01024"
        string_val: "../datasets/train-00245-of-01024"
        string_val: "../datasets/train-00023-of-01024"
        string_val: "../datasets/train-00022-of-01024"
        string_val: "../datasets/train-00244-of-01024"
        string_val: "../datasets/train-00577-of-01024"
        string_val: "../datasets/train-00711-of-01024"
        string_val: "../datasets/train-00710-of-01024"
        string_val: "../datasets/train-00576-of-01024"
        string_val: "../datasets/train-00975-of-01024"
        string_val: "../datasets/train-00783-of-01024"
        string_val: "../datasets/train-00782-of-01024"
        string_val: "../datasets/train-00974-of-01024"
        string_val: "../datasets/train-00619-of-01024"
        string_val: "../datasets/train-00618-of-01024"
        string_val: "../datasets/train-00396-of-01024"
        string_val: "../datasets/train-00397-of-01024"
        string_val: "../datasets/train-00758-of-01024"
        string_val: "../datasets/train-00759-of-01024"
        string_val: "../datasets/train-00834-of-01024"
        string_val: "../datasets/train-00835-of-01024"
        string_val: "../datasets/train-00650-of-01024"
        string_val: "../datasets/train-00436-of-01024"
        string_val: "../datasets/train-00437-of-01024"
        string_val: "../datasets/train-00651-of-01024"
        string_val: "../datasets/train-00162-of-01024"
        string_val: "../datasets/train-00304-of-01024"
        string_val: "../datasets/train-00305-of-01024"
        string_val: "../datasets/train-00163-of-01024"
        string_val: "../datasets/train-00664-of-01024"
        string_val: "../datasets/train-00892-of-01024"
        string_val: "../datasets/train-00402-of-01024"
        string_val: "../datasets/train-00893-of-01024"
        string_val: "../datasets/train-00403-of-01024"
        string_val: "../datasets/train-00665-of-01024"
        string_val: "../datasets/train-00908-of-01024"
        string_val: "../datasets/train-00598-of-01024"
        string_val: "../datasets/train-00909-of-01024"
        string_val: "../datasets/train-00599-of-01024"
        string_val: "../datasets/train-00156-of-01024"
        string_val: "../datasets/train-00330-of-01024"
        string_val: "../datasets/train-00331-of-01024"
        string_val: "../datasets/train-00157-of-01024"
        string_val: "../datasets/train-00490-of-01024"
        string_val: "../datasets/train-00800-of-01024"
        string_val: "../datasets/train-00491-of-01024"
        string_val: "../datasets/train-00801-of-01024"
        string_val: "../datasets/train-00238-of-01024"
        string_val: "../datasets/train-00239-of-01024"
        string_val: "../datasets/train-00379-of-01024"
        string_val: "../datasets/train-00378-of-01024"
        string_val: "../datasets/train-00941-of-01024"
        string_val: "../datasets/train-00940-of-01024"
        string_val: "../datasets/train-00085-of-01024"
        string_val: "../datasets/train-00084-of-01024"
        string_val: "../datasets/train-00271-of-01024"
        string_val: "../datasets/train-00017-of-01024"
        string_val: "../datasets/train-00016-of-01024"
        string_val: "../datasets/train-00270-of-01024"
        string_val: "../datasets/train-00849-of-01024"
        string_val: "../datasets/train-00848-of-01024"
        string_val: "../datasets/train-00543-of-01024"
        string_val: "../datasets/train-00725-of-01024"
        string_val: "../datasets/train-00724-of-01024"
        string_val: "../datasets/train-00542-of-01024"
        string_val: "../datasets/train-00168-of-01024"
        string_val: "../datasets/train-00169-of-01024"
        string_val: "../datasets/train-00936-of-01024"
        string_val: "../datasets/train-00937-of-01024"
        string_val: "../datasets/train-00294-of-01024"
        string_val: "../datasets/train-00295-of-01024"
        string_val: "../datasets/train-00060-of-01024"
        string_val: "../datasets/train-00206-of-01024"
        string_val: "../datasets/train-00207-of-01024"
        string_val: "../datasets/train-00061-of-01024"
        string_val: "../datasets/train-00752-of-01024"
        string_val: "../datasets/train-00534-of-01024"
        string_val: "../datasets/train-00535-of-01024"
        string_val: "../datasets/train-00753-of-01024"
        string_val: "../datasets/train-00475-of-01024"
        string_val: "../datasets/train-00613-of-01024"
        string_val: "../datasets/train-00612-of-01024"
        string_val: "../datasets/train-00474-of-01024"
        string_val: "../datasets/train-01015-of-01024"
        string_val: "../datasets/train-01014-of-01024"
        string_val: "../datasets/train-00789-of-01024"
        string_val: "../datasets/train-00788-of-01024"
        string_val: "../datasets/train-00347-of-01024"
        string_val: "../datasets/train-00121-of-01024"
        string_val: "../datasets/train-00120-of-01024"
        string_val: "../datasets/train-00346-of-01024"
        string_val: "../datasets/train-00877-of-01024"
        string_val: "../datasets/train-00681-of-01024"
        string_val: "../datasets/train-00680-of-01024"
        string_val: "../datasets/train-00876-of-01024"
        string_val: "../datasets/train-00029-of-01024"
        string_val: "../datasets/train-00028-of-01024"
        string_val: "../datasets/train-00915-of-01024"
        string_val: "../datasets/train-00585-of-01024"
        string_val: "../datasets/train-00914-of-01024"
        string_val: "../datasets/train-00584-of-01024"
        string_val: "../datasets/train-00679-of-01024"
        string_val: "../datasets/train-00678-of-01024"
        string_val: "../datasets/train-00043-of-01024"
        string_val: "../datasets/train-00225-of-01024"
        string_val: "../datasets/train-00224-of-01024"
        string_val: "../datasets/train-00042-of-01024"
        string_val: "../datasets/train-00771-of-01024"
        string_val: "../datasets/train-00517-of-01024"
        string_val: "../datasets/train-00987-of-01024"
        string_val: "../datasets/train-00516-of-01024"
        string_val: "../datasets/train-00986-of-01024"
        string_val: "../datasets/train-00770-of-01024"
        string_val: "../datasets/train-00456-of-01024"
        string_val: "../datasets/train-00630-of-01024"
        string_val: "../datasets/train-00631-of-01024"
        string_val: "../datasets/train-00457-of-01024"
        string_val: "../datasets/train-00098-of-01024"
        string_val: "../datasets/train-00099-of-01024"
        string_val: "../datasets/train-00364-of-01024"
        string_val: "../datasets/train-00102-of-01024"
        string_val: "../datasets/train-00103-of-01024"
        string_val: "../datasets/train-00365-of-01024"
        string_val: "../datasets/train-00738-of-01024"
        string_val: "../datasets/train-00739-of-01024"
        string_val: "../datasets/train-00190-of-01024"
        string_val: "../datasets/train-00191-of-01024"
        string_val: "../datasets/train-00854-of-01024"
        string_val: "../datasets/train-00855-of-01024"
        string_val: "../datasets/train-00647-of-01024"
        string_val: "../datasets/train-00421-of-01024"
        string_val: "../datasets/train-00420-of-01024"
        string_val: "../datasets/train-00646-of-01024"
        string_val: "../datasets/train-00289-of-01024"
        string_val: "../datasets/train-00288-of-01024"
        string_val: "../datasets/train-00175-of-01024"
        string_val: "../datasets/train-00313-of-01024"
        string_val: "../datasets/train-00312-of-01024"
        string_val: "../datasets/train-00174-of-01024"
        string_val: "../datasets/train-00529-of-01024"
        string_val: "../datasets/train-00528-of-01024"
        string_val: "../datasets/train-00381-of-01024"
        string_val: "../datasets/train-00380-of-01024"
        string_val: "../datasets/train-00823-of-01024"
        string_val: "../datasets/train-00822-of-01024"
        string_val: "../datasets/train-00962-of-01024"
        string_val: "../datasets/train-00794-of-01024"
        string_val: "../datasets/train-00795-of-01024"
        string_val: "../datasets/train-00963-of-01024"
        string_val: "../datasets/train-01008-of-01024"
        string_val: "../datasets/train-01009-of-01024"
        string_val: "../datasets/train-00468-of-01024"
        string_val: "../datasets/train-00469-of-01024"
        string_val: "../datasets/train-00252-of-01024"
        string_val: "../datasets/train-00034-of-01024"
        string_val: "../datasets/train-00035-of-01024"
        string_val: "../datasets/train-00253-of-01024"
        string_val: "../datasets/train-00560-of-01024"
        string_val: "../datasets/train-00706-of-01024"
        string_val: "../datasets/train-00707-of-01024"
        string_val: "../datasets/train-00561-of-01024"
        string_val: "../datasets/train-00266-of-01024"
        string_val: "../datasets/train-00000-of-01024"
        string_val: "../datasets/train-00001-of-01024"
        string_val: "../datasets/train-00267-of-01024"
        string_val: "../datasets/train-00554-of-01024"
        string_val: "../datasets/train-00732-of-01024"
        string_val: "../datasets/train-00733-of-01024"
        string_val: "../datasets/train-00555-of-01024"
        string_val: "../datasets/train-00956-of-01024"
        string_val: "../datasets/train-00957-of-01024"
        string_val: "../datasets/train-00108-of-01024"
        string_val: "../datasets/train-00109-of-01024"
        string_val: "../datasets/train-00092-of-01024"
        string_val: "../datasets/train-00093-of-01024"
        string_val: "../datasets/train-00049-of-01024"
        string_val: "../datasets/train-00048-of-01024"
        string_val: "../datasets/train-00817-of-01024"
        string_val: "../datasets/train-00487-of-01024"
        string_val: "../datasets/train-00816-of-01024"
        string_val: "../datasets/train-00486-of-01024"
        string_val: "../datasets/train-00673-of-01024"
        string_val: "../datasets/train-00415-of-01024"
        string_val: "../datasets/train-00885-of-01024"
        string_val: "../datasets/train-00414-of-01024"
        string_val: "../datasets/train-00884-of-01024"
        string_val: "../datasets/train-00672-of-01024"
        string_val: "../datasets/train-00141-of-01024"
        string_val: "../datasets/train-00327-of-01024"
        string_val: "../datasets/train-00326-of-01024"
        string_val: "../datasets/train-00140-of-01024"
        string_val: "../datasets/train-00258-of-01024"
        string_val: "../datasets/train-00259-of-01024"
        string_val: "../datasets/train-00860-of-01024"
        string_val: "../datasets/train-00696-of-01024"
        string_val: "../datasets/train-00697-of-01024"
        string_val: "../datasets/train-00861-of-01024"
        string_val: "../datasets/train-01002-of-01024"
        string_val: "../datasets/train-01003-of-01024"
        string_val: "../datasets/train-00462-of-01024"
        string_val: "../datasets/train-00604-of-01024"
        string_val: "../datasets/train-00605-of-01024"
        string_val: "../datasets/train-00463-of-01024"
        string_val: "../datasets/train-00350-of-01024"
        string_val: "../datasets/train-00136-of-01024"
        string_val: "../datasets/train-00137-of-01024"
        string_val: "../datasets/train-00351-of-01024"
        string_val: "../datasets/train-00968-of-01024"
        string_val: "../datasets/train-00969-of-01024"
        string_val: "../datasets/train-00829-of-01024"
        string_val: "../datasets/train-00828-of-01024"
        string_val: "../datasets/train-00077-of-01024"
        string_val: "../datasets/train-00211-of-01024"
        string_val: "../datasets/train-00210-of-01024"
        string_val: "../datasets/train-00076-of-01024"
        string_val: "../datasets/train-00745-of-01024"
        string_val: "../datasets/train-00523-of-01024"
        string_val: "../datasets/train-00522-of-01024"
        string_val: "../datasets/train-00744-of-01024"
        string_val: "../datasets/train-00921-of-01024"
        string_val: "../datasets/train-00920-of-01024"
        string_val: "../datasets/train-00319-of-01024"
        string_val: "../datasets/train-00318-of-01024"
        string_val: "../datasets/train-00283-of-01024"
        string_val: "../datasets/train-00282-of-01024"
        string_val: "../datasets/train-00222-of-01024"
        string_val: "../datasets/train-00044-of-01024"
        string_val: "../datasets/train-00045-of-01024"
        string_val: "../datasets/train-00223-of-01024"
        string_val: "../datasets/train-00980-of-01024"
        string_val: "../datasets/train-00510-of-01024"
        string_val: "../datasets/train-00776-of-01024"
        string_val: "../datasets/train-00777-of-01024"
        string_val: "../datasets/train-00981-of-01024"
        string_val: "../datasets/train-00511-of-01024"
        string_val: "../datasets/train-00582-of-01024"
        string_val: "../datasets/train-00912-of-01024"
        string_val: "../datasets/train-00583-of-01024"
        string_val: "../datasets/train-00913-of-01024"
        string_val: "../datasets/train-00418-of-01024"
        string_val: "../datasets/train-00888-of-01024"
        string_val: "../datasets/train-00419-of-01024"
        string_val: "../datasets/train-00889-of-01024"
        string_val: "../datasets/train-00559-of-01024"
        string_val: "../datasets/train-00558-of-01024"
        string_val: "../datasets/train-00197-of-01024"
        string_val: "../datasets/train-00196-of-01024"
        string_val: "../datasets/train-00853-of-01024"
        string_val: "../datasets/train-00852-of-01024"
        string_val: "../datasets/train-00637-of-01024"
        string_val: "../datasets/train-00451-of-01024"
        string_val: "../datasets/train-00450-of-01024"
        string_val: "../datasets/train-00636-of-01024"
        string_val: "../datasets/train-00105-of-01024"
        string_val: "../datasets/train-00363-of-01024"
        string_val: "../datasets/train-00362-of-01024"
        string_val: "../datasets/train-00104-of-01024"
        string_val: "../datasets/train-00748-of-01024"
        string_val: "../datasets/train-00749-of-01024"
        string_val: "../datasets/train-00386-of-01024"
        string_val: "../datasets/train-00387-of-01024"
        string_val: "../datasets/train-00824-of-01024"
        string_val: "../datasets/train-00825-of-01024"
        string_val: "../datasets/train-00426-of-01024"
        string_val: "../datasets/train-00640-of-01024"
        string_val: "../datasets/train-00641-of-01024"
        string_val: "../datasets/train-00427-of-01024"
        string_val: "../datasets/train-00314-of-01024"
        string_val: "../datasets/train-00172-of-01024"
        string_val: "../datasets/train-00173-of-01024"
        string_val: "../datasets/train-00315-of-01024"
        string_val: "../datasets/train-00033-of-01024"
        string_val: "../datasets/train-00255-of-01024"
        string_val: "../datasets/train-00254-of-01024"
        string_val: "../datasets/train-00032-of-01024"
        string_val: "../datasets/train-00701-of-01024"
        string_val: "../datasets/train-00567-of-01024"
        string_val: "../datasets/train-00566-of-01024"
        string_val: "../datasets/train-00700-of-01024"
        string_val: "../datasets/train-00793-of-01024"
        string_val: "../datasets/train-00965-of-01024"
        string_val: "../datasets/train-00964-of-01024"
        string_val: "../datasets/train-00792-of-01024"
        string_val: "../datasets/train-00609-of-01024"
        string_val: "../datasets/train-00608-of-01024"
        string_val: "../datasets/train-00951-of-01024"
        string_val: "../datasets/train-00950-of-01024"
        string_val: "../datasets/train-00369-of-01024"
        string_val: "../datasets/train-00368-of-01024"
        string_val: "../datasets/train-00095-of-01024"
        string_val: "../datasets/train-00094-of-01024"
        string_val: "../datasets/train-00859-of-01024"
        string_val: "../datasets/train-00858-of-01024"
        string_val: "../datasets/train-00007-of-01024"
        string_val: "../datasets/train-00261-of-01024"
        string_val: "../datasets/train-00260-of-01024"
        string_val: "../datasets/train-00006-of-01024"
        string_val: "../datasets/train-00735-of-01024"
        string_val: "../datasets/train-00553-of-01024"
        string_val: "../datasets/train-00552-of-01024"
        string_val: "../datasets/train-00734-of-01024"
        string_val: "../datasets/train-00882-of-01024"
        string_val: "../datasets/train-00412-of-01024"
        string_val: "../datasets/train-00674-of-01024"
        string_val: "../datasets/train-00675-of-01024"
        string_val: "../datasets/train-00883-of-01024"
        string_val: "../datasets/train-00413-of-01024"
        string_val: "../datasets/train-00320-of-01024"
        string_val: "../datasets/train-00146-of-01024"
        string_val: "../datasets/train-00147-of-01024"
        string_val: "../datasets/train-00321-of-01024"
        string_val: "../datasets/train-00918-of-01024"
        string_val: "../datasets/train-00588-of-01024"
        string_val: "../datasets/train-00919-of-01024"
        string_val: "../datasets/train-00589-of-01024"
        string_val: "../datasets/train-00228-of-01024"
        string_val: "../datasets/train-00229-of-01024"
        string_val: "../datasets/train-00480-of-01024"
        string_val: "../datasets/train-00810-of-01024"
        string_val: "../datasets/train-00481-of-01024"
        string_val: "../datasets/train-00811-of-01024"
        string_val: "../datasets/train-01005-of-01024"
        string_val: "../datasets/train-01004-of-01024"
        string_val: "../datasets/train-00603-of-01024"
        string_val: "../datasets/train-00465-of-01024"
        string_val: "../datasets/train-00464-of-01024"
        string_val: "../datasets/train-00602-of-01024"
        string_val: "../datasets/train-00131-of-01024"
        string_val: "../datasets/train-00357-of-01024"
        string_val: "../datasets/train-00356-of-01024"
        string_val: "../datasets/train-00130-of-01024"
        string_val: "../datasets/train-00799-of-01024"
        string_val: "../datasets/train-00798-of-01024"
        string_val: "../datasets/train-00039-of-01024"
        string_val: "../datasets/train-00038-of-01024"
        string_val: "../datasets/train-00691-of-01024"
        string_val: "../datasets/train-00867-of-01024"
        string_val: "../datasets/train-00866-of-01024"
        string_val: "../datasets/train-00690-of-01024"
        string_val: "../datasets/train-00926-of-01024"
        string_val: "../datasets/train-00927-of-01024"
        string_val: "../datasets/train-00178-of-01024"
        string_val: "../datasets/train-00179-of-01024"
        string_val: "../datasets/train-00284-of-01024"
        string_val: "../datasets/train-00285-of-01024"
        string_val: "../datasets/train-00216-of-01024"
        string_val: "../datasets/train-00070-of-01024"
        string_val: "../datasets/train-00071-of-01024"
        string_val: "../datasets/train-00217-of-01024"
        string_val: "../datasets/train-00524-of-01024"
        string_val: "../datasets/train-00742-of-01024"
        string_val: "../datasets/train-00743-of-01024"
        string_val: "../datasets/train-00525-of-01024"
        string_val: "../datasets/train-00088-of-01024"
        string_val: "../datasets/train-00089-of-01024"
        string_val: "../datasets/train-00620-of-01024"
        string_val: "../datasets/train-00446-of-01024"
        string_val: "../datasets/train-00447-of-01024"
        string_val: "../datasets/train-00621-of-01024"
        string_val: "../datasets/train-00112-of-01024"
        string_val: "../datasets/train-00374-of-01024"
        string_val: "../datasets/train-00375-of-01024"
        string_val: "../datasets/train-00113-of-01024"
        string_val: "../datasets/train-00180-of-01024"
        string_val: "../datasets/train-00181-of-01024"
        string_val: "../datasets/train-00728-of-01024"
        string_val: "../datasets/train-00729-of-01024"
        string_val: "../datasets/train-00844-of-01024"
        string_val: "../datasets/train-00845-of-01024"
        string_val: "../datasets/train-00905-of-01024"
        string_val: "../datasets/train-00595-of-01024"
        string_val: "../datasets/train-00904-of-01024"
        string_val: "../datasets/train-00594-of-01024"
        string_val: "../datasets/train-00669-of-01024"
        string_val: "../datasets/train-00668-of-01024"
        string_val: "../datasets/train-00235-of-01024"
        string_val: "../datasets/train-00053-of-01024"
        string_val: "../datasets/train-00052-of-01024"
        string_val: "../datasets/train-00234-of-01024"
        string_val: "../datasets/train-00507-of-01024"
        string_val: "../datasets/train-00997-of-01024"
        string_val: "../datasets/train-00761-of-01024"
        string_val: "../datasets/train-00760-of-01024"
        string_val: "../datasets/train-00506-of-01024"
        string_val: "../datasets/train-00996-of-01024"
        string_val: "../datasets/train-00784-of-01024"
        string_val: "../datasets/train-00972-of-01024"
        string_val: "../datasets/train-00973-of-01024"
        string_val: "../datasets/train-00785-of-01024"
        string_val: "../datasets/train-00478-of-01024"
        string_val: "../datasets/train-00479-of-01024"
        string_val: "../datasets/train-01018-of-01024"
        string_val: "../datasets/train-01019-of-01024"
        string_val: "../datasets/train-00024-of-01024"
        string_val: "../datasets/train-00242-of-01024"
        string_val: "../datasets/train-00243-of-01024"
        string_val: "../datasets/train-00025-of-01024"
        string_val: "../datasets/train-00716-of-01024"
        string_val: "../datasets/train-00570-of-01024"
        string_val: "../datasets/train-00571-of-01024"
        string_val: "../datasets/train-00717-of-01024"
        string_val: "../datasets/train-00299-of-01024"
        string_val: "../datasets/train-00298-of-01024"
        string_val: "../datasets/train-00431-of-01024"
        string_val: "../datasets/train-00657-of-01024"
        string_val: "../datasets/train-00656-of-01024"
        string_val: "../datasets/train-00430-of-01024"
        string_val: "../datasets/train-00303-of-01024"
        string_val: "../datasets/train-00165-of-01024"
        string_val: "../datasets/train-00164-of-01024"
        string_val: "../datasets/train-00302-of-01024"
        string_val: "../datasets/train-00391-of-01024"
        string_val: "../datasets/train-00390-of-01024"
        string_val: "../datasets/train-00539-of-01024"
        string_val: "../datasets/train-00538-of-01024"
        string_val: "../datasets/train-00833-of-01024"
        string_val: "../datasets/train-00832-of-01024"
        string_val: "../datasets/train-00807-of-01024"
        string_val: "../datasets/train-00497-of-01024"
        string_val: "../datasets/train-00806-of-01024"
        string_val: "../datasets/train-00496-of-01024"
        string_val: "../datasets/train-00059-of-01024"
        string_val: "../datasets/train-00058-of-01024"
        string_val: "../datasets/train-00405-of-01024"
        string_val: "../datasets/train-00895-of-01024"
        string_val: "../datasets/train-00663-of-01024"
        string_val: "../datasets/train-00662-of-01024"
        string_val: "../datasets/train-00404-of-01024"
        string_val: "../datasets/train-00894-of-01024"
        string_val: "../datasets/train-00337-of-01024"
        string_val: "../datasets/train-00151-of-01024"
        string_val: "../datasets/train-00150-of-01024"
        string_val: "../datasets/train-00336-of-01024"
        string_val: "../datasets/train-00010-of-01024"
        string_val: "../datasets/train-00276-of-01024"
        string_val: "../datasets/train-00277-of-01024"
        string_val: "../datasets/train-00011-of-01024"
        string_val: "../datasets/train-00722-of-01024"
        string_val: "../datasets/train-00544-of-01024"
        string_val: "../datasets/train-00545-of-01024"
        string_val: "../datasets/train-00723-of-01024"
        string_val: "../datasets/train-00118-of-01024"
        string_val: "../datasets/train-00119-of-01024"
        string_val: "../datasets/train-00946-of-01024"
        string_val: "../datasets/train-00947-of-01024"
        string_val: "../datasets/train-00082-of-01024"
        string_val: "../datasets/train-00083-of-01024"
        string_val: "../datasets/train-00201-of-01024"
        string_val: "../datasets/train-00067-of-01024"
        string_val: "../datasets/train-00066-of-01024"
        string_val: "../datasets/train-00200-of-01024"
        string_val: "../datasets/train-00839-of-01024"
        string_val: "../datasets/train-00838-of-01024"
        string_val: "../datasets/train-00533-of-01024"
        string_val: "../datasets/train-00755-of-01024"
        string_val: "../datasets/train-00754-of-01024"
        string_val: "../datasets/train-00532-of-01024"
        string_val: "../datasets/train-00309-of-01024"
        string_val: "../datasets/train-00308-of-01024"
        string_val: "../datasets/train-00931-of-01024"
        string_val: "../datasets/train-00930-of-01024"
        string_val: "../datasets/train-00293-of-01024"
        string_val: "../datasets/train-00292-of-01024"
        string_val: "../datasets/train-00686-of-01024"
        string_val: "../datasets/train-00870-of-01024"
        string_val: "../datasets/train-00871-of-01024"
        string_val: "../datasets/train-00687-of-01024"
        string_val: "../datasets/train-00248-of-01024"
        string_val: "../datasets/train-00249-of-01024"
        string_val: "../datasets/train-00614-of-01024"
        string_val: "../datasets/train-00472-of-01024"
        string_val: "../datasets/train-00473-of-01024"
        string_val: "../datasets/train-00615-of-01024"
        string_val: "../datasets/train-01012-of-01024"
        string_val: "../datasets/train-01013-of-01024"
        string_val: "../datasets/train-00978-of-01024"
        string_val: "../datasets/train-00979-of-01024"
        string_val: "../datasets/train-00126-of-01024"
        string_val: "../datasets/train-00340-of-01024"
        string_val: "../datasets/train-00341-of-01024"
        string_val: "../datasets/train-00127-of-01024"
        string_val: "../datasets/train-00557-of-01024"
        string_val: "../datasets/train-00731-of-01024"
        string_val: "../datasets/train-00730-of-01024"
        string_val: "../datasets/train-00556-of-01024"
        string_val: "../datasets/train-00199-of-01024"
        string_val: "../datasets/train-00198-of-01024"
        string_val: "../datasets/train-00265-of-01024"
        string_val: "../datasets/train-00003-of-01024"
        string_val: "../datasets/train-00002-of-01024"
        string_val: "../datasets/train-00264-of-01024"
        string_val: "../datasets/train-00639-of-01024"
        string_val: "../datasets/train-00638-of-01024"
        string_val: "../datasets/train-00091-of-01024"
        string_val: "../datasets/train-00090-of-01024"
        string_val: "../datasets/train-00955-of-01024"
        string_val: "../datasets/train-00954-of-01024"
        string_val: "../datasets/train-00814-of-01024"
        string_val: "../datasets/train-00484-of-01024"
        string_val: "../datasets/train-00815-of-01024"
        string_val: "../datasets/train-00485-of-01024"
        string_val: "../datasets/train-00778-of-01024"
        string_val: "../datasets/train-00779-of-01024"
        string_val: "../datasets/train-00142-of-01024"
        string_val: "../datasets/train-00324-of-01024"
        string_val: "../datasets/train-00325-of-01024"
        string_val: "../datasets/train-00143-of-01024"
        string_val: "../datasets/train-00670-of-01024"
        string_val: "../datasets/train-00416-of-01024"
        string_val: "../datasets/train-00886-of-01024"
        string_val: "../datasets/train-00417-of-01024"
        string_val: "../datasets/train-00887-of-01024"
        string_val: "../datasets/train-00671-of-01024"
        string_val: "../datasets/train-00863-of-01024"
        string_val: "../datasets/train-00695-of-01024"
        string_val: "../datasets/train-00694-of-01024"
        string_val: "../datasets/train-00862-of-01024"
        string_val: "../datasets/train-00569-of-01024"
        string_val: "../datasets/train-00568-of-01024"
        string_val: "../datasets/train-00353-of-01024"
        string_val: "../datasets/train-00135-of-01024"
        string_val: "../datasets/train-00134-of-01024"
        string_val: "../datasets/train-00352-of-01024"
        string_val: "../datasets/train-01001-of-01024"
        string_val: "../datasets/train-01000-of-01024"
        string_val: "../datasets/train-00461-of-01024"
        string_val: "../datasets/train-00607-of-01024"
        string_val: "../datasets/train-00606-of-01024"
        string_val: "../datasets/train-00460-of-01024"
        string_val: "../datasets/train-00746-of-01024"
        string_val: "../datasets/train-00520-of-01024"
        string_val: "../datasets/train-00521-of-01024"
        string_val: "../datasets/train-00747-of-01024"
        string_val: "../datasets/train-00388-of-01024"
        string_val: "../datasets/train-00389-of-01024"
        string_val: "../datasets/train-00074-of-01024"
        string_val: "../datasets/train-00212-of-01024"
        string_val: "../datasets/train-00213-of-01024"
        string_val: "../datasets/train-00075-of-01024"
        string_val: "../datasets/train-00428-of-01024"
        string_val: "../datasets/train-00429-of-01024"
        string_val: "../datasets/train-00280-of-01024"
        string_val: "../datasets/train-00281-of-01024"
        string_val: "../datasets/train-00922-of-01024"
        string_val: "../datasets/train-00923-of-01024"
        string_val: "../datasets/train-00148-of-01024"
        string_val: "../datasets/train-00149-of-01024"
        string_val: "../datasets/train-00916-of-01024"
        string_val: "../datasets/train-00586-of-01024"
        string_val: "../datasets/train-00917-of-01024"
        string_val: "../datasets/train-00587-of-01024"
        string_val: "../datasets/train-00772-of-01024"
        string_val: "../datasets/train-00514-of-01024"
        string_val: "../datasets/train-00984-of-01024"
        string_val: "../datasets/train-00515-of-01024"
        string_val: "../datasets/train-00985-of-01024"
        string_val: "../datasets/train-00773-of-01024"
        string_val: "../datasets/train-00040-of-01024"
        string_val: "../datasets/train-00226-of-01024"
        string_val: "../datasets/train-00227-of-01024"
        string_val: "../datasets/train-00041-of-01024"
        string_val: "../datasets/train-00367-of-01024"
        string_val: "../datasets/train-00101-of-01024"
        string_val: "../datasets/train-00100-of-01024"
        string_val: "../datasets/train-00366-of-01024"
        string_val: "../datasets/train-00455-of-01024"
        string_val: "../datasets/train-00633-of-01024"
        string_val: "../datasets/train-00632-of-01024"
        string_val: "../datasets/train-00454-of-01024"
        string_val: "../datasets/train-00857-of-01024"
        string_val: "../datasets/train-00856-of-01024"
        string_val: "../datasets/train-00009-of-01024"
        string_val: "../datasets/train-00008-of-01024"
        string_val: "../datasets/train-00193-of-01024"
        string_val: "../datasets/train-00192-of-01024"
        string_val: "../datasets/train-00928-of-01024"
        string_val: "../datasets/train-00929-of-01024"
        string_val: "../datasets/train-00176-of-01024"
        string_val: "../datasets/train-00310-of-01024"
        string_val: "../datasets/train-00311-of-01024"
        string_val: "../datasets/train-00177-of-01024"
        string_val: "../datasets/train-00644-of-01024"
        string_val: "../datasets/train-00422-of-01024"
        string_val: "../datasets/train-00423-of-01024"
        string_val: "../datasets/train-00645-of-01024"
        string_val: "../datasets/train-00820-of-01024"
        string_val: "../datasets/train-00821-of-01024"
        string_val: "../datasets/train-00218-of-01024"
        string_val: "../datasets/train-00219-of-01024"
        string_val: "../datasets/train-00382-of-01024"
        string_val: "../datasets/train-00383-of-01024"
        string_val: "../datasets/train-00359-of-01024"
        string_val: "../datasets/train-00358-of-01024"
        string_val: "../datasets/train-00961-of-01024"
        string_val: "../datasets/train-00797-of-01024"
        string_val: "../datasets/train-00796-of-01024"
        string_val: "../datasets/train-00960-of-01024"
        string_val: "../datasets/train-00563-of-01024"
        string_val: "../datasets/train-00705-of-01024"
        string_val: "../datasets/train-00704-of-01024"
        string_val: "../datasets/train-00562-of-01024"
        string_val: "../datasets/train-00251-of-01024"
        string_val: "../datasets/train-00037-of-01024"
        string_val: "../datasets/train-00036-of-01024"
        string_val: "../datasets/train-00250-of-01024"
        string_val: "../datasets/train-00869-of-01024"
        string_val: "../datasets/train-00868-of-01024"
        string_val: "../datasets/train-00155-of-01024"
        string_val: "../datasets/train-00333-of-01024"
        string_val: "../datasets/train-00332-of-01024"
        string_val: "../datasets/train-00154-of-01024"
        string_val: "../datasets/train-00667-of-01024"
        string_val: "../datasets/train-00891-of-01024"
        string_val: "../datasets/train-00401-of-01024"
        string_val: "../datasets/train-00890-of-01024"
        string_val: "../datasets/train-00400-of-01024"
        string_val: "../datasets/train-00666-of-01024"
        string_val: "../datasets/train-00493-of-01024"
        string_val: "../datasets/train-00803-of-01024"
        string_val: "../datasets/train-00492-of-01024"
        string_val: "../datasets/train-00802-of-01024"
        string_val: "../datasets/train-00509-of-01024"
        string_val: "../datasets/train-00999-of-01024"
        string_val: "../datasets/train-00508-of-01024"
        string_val: "../datasets/train-00998-of-01024"
        string_val: "../datasets/train-00086-of-01024"
        string_val: "../datasets/train-00087-of-01024"
        string_val: "../datasets/train-00448-of-01024"
        string_val: "../datasets/train-00449-of-01024"
        string_val: "../datasets/train-00942-of-01024"
        string_val: "../datasets/train-00943-of-01024"
        string_val: "../datasets/train-00540-of-01024"
        string_val: "../datasets/train-00726-of-01024"
        string_val: "../datasets/train-00727-of-01024"
        string_val: "../datasets/train-00541-of-01024"
        string_val: "../datasets/train-00272-of-01024"
        string_val: "../datasets/train-00014-of-01024"
        string_val: "../datasets/train-00015-of-01024"
        string_val: "../datasets/train-00273-of-01024"
        string_val: "../datasets/train-00297-of-01024"
        string_val: "../datasets/train-00296-of-01024"
        string_val: "../datasets/train-00659-of-01024"
        string_val: "../datasets/train-00658-of-01024"
        string_val: "../datasets/train-00935-of-01024"
        string_val: "../datasets/train-00934-of-01024"
        string_val: "../datasets/train-00751-of-01024"
        string_val: "../datasets/train-00537-of-01024"
        string_val: "../datasets/train-00536-of-01024"
        string_val: "../datasets/train-00750-of-01024"
        string_val: "../datasets/train-00063-of-01024"
        string_val: "../datasets/train-00205-of-01024"
        string_val: "../datasets/train-00204-of-01024"
        string_val: "../datasets/train-00062-of-01024"
        string_val: "../datasets/train-00344-of-01024"
        string_val: "../datasets/train-00122-of-01024"
        string_val: "../datasets/train-00123-of-01024"
        string_val: "../datasets/train-00345-of-01024"
        string_val: "../datasets/train-00476-of-01024"
        string_val: "../datasets/train-00610-of-01024"
        string_val: "../datasets/train-00611-of-01024"
        string_val: "../datasets/train-00477-of-01024"
        string_val: "../datasets/train-01016-of-01024"
        string_val: "../datasets/train-01017-of-01024"
        string_val: "../datasets/train-00874-of-01024"
        string_val: "../datasets/train-00682-of-01024"
        string_val: "../datasets/train-00683-of-01024"
        string_val: "../datasets/train-00875-of-01024"
        string_val: "../datasets/train-00718-of-01024"
        string_val: "../datasets/train-00719-of-01024"
        string_val: "../datasets/train-00278-of-01024"
        string_val: "../datasets/train-00279-of-01024"
        string_val: "../datasets/train-00840-of-01024"
        string_val: "../datasets/train-00841-of-01024"
        string_val: "../datasets/train-00184-of-01024"
        string_val: "../datasets/train-00185-of-01024"
        string_val: "../datasets/train-00370-of-01024"
        string_val: "../datasets/train-00116-of-01024"
        string_val: "../datasets/train-00117-of-01024"
        string_val: "../datasets/train-00371-of-01024"
        string_val: "../datasets/train-00948-of-01024"
        string_val: "../datasets/train-00949-of-01024"
        string_val: "../datasets/train-01022-of-01024"
        string_val: "../datasets/train-01023-of-01024"
        string_val: "../datasets/train-00442-of-01024"
        string_val: "../datasets/train-00624-of-01024"
        string_val: "../datasets/train-00625-of-01024"
        string_val: "../datasets/train-00443-of-01024"
        string_val: "../datasets/train-00765-of-01024"
        string_val: "../datasets/train-00993-of-01024"
        string_val: "../datasets/train-00503-of-01024"
        string_val: "../datasets/train-00992-of-01024"
        string_val: "../datasets/train-00502-of-01024"
        string_val: "../datasets/train-00764-of-01024"
        string_val: "../datasets/train-00809-of-01024"
        string_val: "../datasets/train-00499-of-01024"
        string_val: "../datasets/train-00808-of-01024"
        string_val: "../datasets/train-00498-of-01024"
        string_val: "../datasets/train-00057-of-01024"
        string_val: "../datasets/train-00231-of-01024"
        string_val: "../datasets/train-00230-of-01024"
        string_val: "../datasets/train-00056-of-01024"
        string_val: "../datasets/train-00591-of-01024"
        string_val: "../datasets/train-00901-of-01024"
        string_val: "../datasets/train-00590-of-01024"
        string_val: "../datasets/train-00900-of-01024"
        string_val: "../datasets/train-00339-of-01024"
        string_val: "../datasets/train-00338-of-01024"
        string_val: "../datasets/train-00574-of-01024"
        string_val: "../datasets/train-00712-of-01024"
        string_val: "../datasets/train-00713-of-01024"
        string_val: "../datasets/train-00575-of-01024"
        string_val: "../datasets/train-00688-of-01024"
        string_val: "../datasets/train-00689-of-01024"
        string_val: "../datasets/train-00246-of-01024"
        string_val: "../datasets/train-00020-of-01024"
        string_val: "../datasets/train-00021-of-01024"
        string_val: "../datasets/train-00247-of-01024"
        string_val: "../datasets/train-00976-of-01024"
        string_val: "../datasets/train-00780-of-01024"
        string_val: "../datasets/train-00781-of-01024"
        string_val: "../datasets/train-00977-of-01024"
        string_val: "../datasets/train-00128-of-01024"
        string_val: "../datasets/train-00129-of-01024"
        string_val: "../datasets/train-00069-of-01024"
        string_val: "../datasets/train-00068-of-01024"
        string_val: "../datasets/train-00837-of-01024"
        string_val: "../datasets/train-00836-of-01024"
        string_val: "../datasets/train-00395-of-01024"
        string_val: "../datasets/train-00394-of-01024"
        string_val: "../datasets/train-00161-of-01024"
        string_val: "../datasets/train-00307-of-01024"
        string_val: "../datasets/train-00306-of-01024"
        string_val: "../datasets/train-00160-of-01024"
        string_val: "../datasets/train-00653-of-01024"
        string_val: "../datasets/train-00435-of-01024"
        string_val: "../datasets/train-00434-of-01024"
        string_val: "../datasets/train-00652-of-01024"
        string_val: "../datasets/train-00804-of-01024"
        string_val: "../datasets/train-00494-of-01024"
        string_val: "../datasets/train-00805-of-01024"
        string_val: "../datasets/train-00495-of-01024"
        string_val: "../datasets/train-00768-of-01024"
        string_val: "../datasets/train-00769-of-01024"
        string_val: "../datasets/train-00334-of-01024"
        string_val: "../datasets/train-00152-of-01024"
        string_val: "../datasets/train-00153-of-01024"
        string_val: "../datasets/train-00335-of-01024"
        string_val: "../datasets/train-00406-of-01024"
        string_val: "../datasets/train-00896-of-01024"
        string_val: "../datasets/train-00660-of-01024"
        string_val: "../datasets/train-00661-of-01024"
        string_val: "../datasets/train-00407-of-01024"
        string_val: "../datasets/train-00897-of-01024"
        string_val: "../datasets/train-00189-of-01024"
        string_val: "../datasets/train-00188-of-01024"
        string_val: "../datasets/train-00721-of-01024"
        string_val: "../datasets/train-00547-of-01024"
        string_val: "../datasets/train-00546-of-01024"
        string_val: "../datasets/train-00720-of-01024"
        string_val: "../datasets/train-00013-of-01024"
        string_val: "../datasets/train-00275-of-01024"
        string_val: "../datasets/train-00274-of-01024"
        string_val: "../datasets/train-00012-of-01024"
        string_val: "../datasets/train-00081-of-01024"
        string_val: "../datasets/train-00080-of-01024"
        string_val: "../datasets/train-00629-of-01024"
        string_val: "../datasets/train-00628-of-01024"
        string_val: "../datasets/train-00945-of-01024"
        string_val: "../datasets/train-00944-of-01024"
        string_val: "../datasets/train-00398-of-01024"
        string_val: "../datasets/train-00399-of-01024"
        string_val: "../datasets/train-00530-of-01024"
        string_val: "../datasets/train-00756-of-01024"
        string_val: "../datasets/train-00757-of-01024"
        string_val: "../datasets/train-00531-of-01024"
        string_val: "../datasets/train-00202-of-01024"
        string_val: "../datasets/train-00064-of-01024"
        string_val: "../datasets/train-00065-of-01024"
        string_val: "../datasets/train-00203-of-01024"
        string_val: "../datasets/train-00290-of-01024"
        string_val: "../datasets/train-00291-of-01024"
        string_val: "../datasets/train-00438-of-01024"
        string_val: "../datasets/train-00439-of-01024"
        string_val: "../datasets/train-00932-of-01024"
        string_val: "../datasets/train-00933-of-01024"
        string_val: "../datasets/train-00685-of-01024"
        string_val: "../datasets/train-00873-of-01024"
        string_val: "../datasets/train-00872-of-01024"
        string_val: "../datasets/train-00684-of-01024"
        string_val: "../datasets/train-00579-of-01024"
        string_val: "../datasets/train-00578-of-01024"
        string_val: "../datasets/train-00125-of-01024"
        string_val: "../datasets/train-00343-of-01024"
        string_val: "../datasets/train-00342-of-01024"
        string_val: "../datasets/train-00124-of-01024"
        string_val: "../datasets/train-00617-of-01024"
        string_val: "../datasets/train-00471-of-01024"
        string_val: "../datasets/train-00470-of-01024"
        string_val: "../datasets/train-00616-of-01024"
        string_val: "../datasets/train-01011-of-01024"
        string_val: "../datasets/train-01010-of-01024"
        string_val: "../datasets/train-00111-of-01024"
        string_val: "../datasets/train-00377-of-01024"
        string_val: "../datasets/train-00376-of-01024"
        string_val: "../datasets/train-00110-of-01024"
        string_val: "../datasets/train-00623-of-01024"
        string_val: "../datasets/train-00445-of-01024"
        string_val: "../datasets/train-00444-of-01024"
        string_val: "../datasets/train-00622-of-01024"
        string_val: "../datasets/train-00019-of-01024"
        string_val: "../datasets/train-00018-of-01024"
        string_val: "../datasets/train-00847-of-01024"
        string_val: "../datasets/train-00846-of-01024"
        string_val: "../datasets/train-00183-of-01024"
        string_val: "../datasets/train-00182-of-01024"
        string_val: "../datasets/train-00906-of-01024"
        string_val: "../datasets/train-00596-of-01024"
        string_val: "../datasets/train-00907-of-01024"
        string_val: "../datasets/train-00597-of-01024"
        string_val: "../datasets/train-00158-of-01024"
        string_val: "../datasets/train-00159-of-01024"
        string_val: "../datasets/train-00504-of-01024"
        string_val: "../datasets/train-00994-of-01024"
        string_val: "../datasets/train-00762-of-01024"
        string_val: "../datasets/train-00763-of-01024"
        string_val: "../datasets/train-00505-of-01024"
        string_val: "../datasets/train-00995-of-01024"
        string_val: "../datasets/train-00236-of-01024"
        string_val: "../datasets/train-00050-of-01024"
        string_val: "../datasets/train-00051-of-01024"
        string_val: "../datasets/train-00237-of-01024"
        string_val: "../datasets/train-00787-of-01024"
        string_val: "../datasets/train-00971-of-01024"
        string_val: "../datasets/train-00970-of-01024"
        string_val: "../datasets/train-00786-of-01024"
        string_val: "../datasets/train-00349-of-01024"
        string_val: "../datasets/train-00348-of-01024"
        string_val: "../datasets/train-00715-of-01024"
        string_val: "../datasets/train-00573-of-01024"
        string_val: "../datasets/train-00572-of-01024"
        string_val: "../datasets/train-00714-of-01024"
        string_val: "../datasets/train-00879-of-01024"
        string_val: "../datasets/train-00878-of-01024"
        string_val: "../datasets/train-00027-of-01024"
        string_val: "../datasets/train-00241-of-01024"
        string_val: "../datasets/train-00240-of-01024"
        string_val: "../datasets/train-00026-of-01024"
        string_val: "../datasets/train-00300-of-01024"
        string_val: "../datasets/train-00166-of-01024"
        string_val: "../datasets/train-00167-of-01024"
        string_val: "../datasets/train-00301-of-01024"
        string_val: "../datasets/train-00938-of-01024"
        string_val: "../datasets/train-00939-of-01024"
        string_val: "../datasets/train-00432-of-01024"
        string_val: "../datasets/train-00654-of-01024"
        string_val: "../datasets/train-00655-of-01024"
        string_val: "../datasets/train-00433-of-01024"
        string_val: "../datasets/train-00208-of-01024"
        string_val: "../datasets/train-00209-of-01024"
        string_val: "../datasets/train-00830-of-01024"
        string_val: "../datasets/train-00831-of-01024"
        string_val: "../datasets/train-00392-of-01024"
        string_val: "../datasets/train-00393-of-01024"
        string_val: "../datasets/train-00458-of-01024"
        string_val: "../datasets/train-00459-of-01024"
        string_val: "../datasets/train-00096-of-01024"
        string_val: "../datasets/train-00097-of-01024"
        string_val: "../datasets/train-00952-of-01024"
        string_val: "../datasets/train-00953-of-01024"
        string_val: "../datasets/train-00736-of-01024"
        string_val: "../datasets/train-00550-of-01024"
        string_val: "../datasets/train-00551-of-01024"
        string_val: "../datasets/train-00737-of-01024"
        string_val: "../datasets/train-00004-of-01024"
        string_val: "../datasets/train-00262-of-01024"
        string_val: "../datasets/train-00263-of-01024"
        string_val: "../datasets/train-00005-of-01024"
        string_val: "../datasets/train-00323-of-01024"
        string_val: "../datasets/train-00145-of-01024"
        string_val: "../datasets/train-00144-of-01024"
        string_val: "../datasets/train-00322-of-01024"
        string_val: "../datasets/train-00881-of-01024"
        string_val: "../datasets/train-00411-of-01024"
        string_val: "../datasets/train-00677-of-01024"
        string_val: "../datasets/train-00676-of-01024"
        string_val: "../datasets/train-00880-of-01024"
        string_val: "../datasets/train-00410-of-01024"
        string_val: "../datasets/train-00483-of-01024"
        string_val: "../datasets/train-00813-of-01024"
        string_val: "../datasets/train-00482-of-01024"
        string_val: "../datasets/train-00812-of-01024"
        string_val: "../datasets/train-00519-of-01024"
        string_val: "../datasets/train-00989-of-01024"
        string_val: "../datasets/train-00518-of-01024"
        string_val: "../datasets/train-00988-of-01024"
        string_val: "../datasets/train-00132-of-01024"
        string_val: "../datasets/train-00354-of-01024"
        string_val: "../datasets/train-00355-of-01024"
        string_val: "../datasets/train-00133-of-01024"
        string_val: "../datasets/train-01006-of-01024"
        string_val: "../datasets/train-01007-of-01024"
        string_val: "../datasets/train-00600-of-01024"
        string_val: "../datasets/train-00466-of-01024"
        string_val: "../datasets/train-00467-of-01024"
        string_val: "../datasets/train-00601-of-01024"
        string_val: "../datasets/train-00692-of-01024"
        string_val: "../datasets/train-00864-of-01024"
        string_val: "../datasets/train-00865-of-01024"
        string_val: "../datasets/train-00693-of-01024"
        string_val: "../datasets/train-00708-of-01024"
        string_val: "../datasets/train-00709-of-01024"
        string_val: "../datasets/train-00649-of-01024"
        string_val: "../datasets/train-00648-of-01024"
        string_val: "../datasets/train-00287-of-01024"
        string_val: "../datasets/train-00286-of-01024"
        string_val: "../datasets/train-00925-of-01024"
        string_val: "../datasets/train-00924-of-01024"
        string_val: "../datasets/train-00527-of-01024"
        string_val: "../datasets/train-00741-of-01024"
        string_val: "../datasets/train-00740-of-01024"
        string_val: "../datasets/train-00526-of-01024"
        string_val: "../datasets/train-00215-of-01024"
        string_val: "../datasets/train-00073-of-01024"
        string_val: "../datasets/train-00072-of-01024"
        string_val: "../datasets/train-00214-of-01024"
        string_val: "../datasets/train-00983-of-01024"
        string_val: "../datasets/train-00513-of-01024"
        string_val: "../datasets/train-00775-of-01024"
        string_val: "../datasets/train-00774-of-01024"
        string_val: "../datasets/train-00982-of-01024"
        string_val: "../datasets/train-00512-of-01024"
        string_val: "../datasets/train-00221-of-01024"
        string_val: "../datasets/train-00047-of-01024"
        string_val: "../datasets/train-00046-of-01024"
        string_val: "../datasets/train-00220-of-01024"
        string_val: "../datasets/train-00819-of-01024"
        string_val: "../datasets/train-00489-of-01024"
        string_val: "../datasets/train-00818-of-01024"
        string_val: "../datasets/train-00488-of-01024"
        string_val: "../datasets/train-00329-of-01024"
        string_val: "../datasets/train-00328-of-01024"
        string_val: "../datasets/train-00581-of-01024"
        string_val: "../datasets/train-00911-of-01024"
        string_val: "../datasets/train-00580-of-01024"
        string_val: "../datasets/train-00910-of-01024"
        string_val: "../datasets/train-00850-of-01024"
        string_val: "../datasets/train-00851-of-01024"
        string_val: "../datasets/train-00268-of-01024"
        string_val: "../datasets/train-00269-of-01024"
        string_val: "../datasets/train-00194-of-01024"
        string_val: "../datasets/train-00195-of-01024"
        string_val: "../datasets/train-00958-of-01024"
        string_val: "../datasets/train-00959-of-01024"
        string_val: "../datasets/train-00106-of-01024"
        string_val: "../datasets/train-00360-of-01024"
        string_val: "../datasets/train-00361-of-01024"
        string_val: "../datasets/train-00107-of-01024"
        string_val: "../datasets/train-00634-of-01024"
        string_val: "../datasets/train-00452-of-01024"
        string_val: "../datasets/train-00453-of-01024"
        string_val: "../datasets/train-00635-of-01024"
        string_val: "../datasets/train-00827-of-01024"
        string_val: "../datasets/train-00826-of-01024"
        string_val: "../datasets/train-00079-of-01024"
        string_val: "../datasets/train-00078-of-01024"
        string_val: "../datasets/train-00385-of-01024"
        string_val: "../datasets/train-00384-of-01024"
        string_val: "../datasets/train-00317-of-01024"
        string_val: "../datasets/train-00171-of-01024"
        string_val: "../datasets/train-00170-of-01024"
        string_val: "../datasets/train-00316-of-01024"
        string_val: "../datasets/train-00425-of-01024"
        string_val: "../datasets/train-00643-of-01024"
        string_val: "../datasets/train-00642-of-01024"
        string_val: "../datasets/train-00424-of-01024"
        string_val: "../datasets/train-00702-of-01024"
        string_val: "../datasets/train-00564-of-01024"
        string_val: "../datasets/train-00565-of-01024"
        string_val: "../datasets/train-00703-of-01024"
        string_val: "../datasets/train-00030-of-01024"
        string_val: "../datasets/train-00256-of-01024"
        string_val: "../datasets/train-00257-of-01024"
        string_val: "../datasets/train-00031-of-01024"
        string_val: "../datasets/train-00698-of-01024"
        string_val: "../datasets/train-00699-of-01024"
        string_val: "../datasets/train-00138-of-01024"
        string_val: "../datasets/train-00139-of-01024"
        string_val: "../datasets/train-00790-of-01024"
        string_val: "../datasets/train-00966-of-01024"
        string_val: "../datasets/train-00967-of-01024"
        string_val: "../datasets/train-00791-of-01024"
      }
    }
  }
}
node {
  name: "parallel_read/filenames/Size"
  op: "Const"
  attr {
    key: "_output_shapes"
    value {
      list {
        shape {
        }
      }
    }
  }
  attr {
    key: "dtype"
    value {
      type: DT_INT32
    }
  }
  attr {
    key: "value"
    value {
      tensor {
        dtype: DT_INT32
        tensor_shape {
        }
        int_val: 1024
      }
    }
  }
}
node {
  name: "parallel_read/filenames/Greater/y"
  op: "Const"
  attr {
    key: "_output_shapes"
    value {
      list {
        shape {
        }
      }
    }
  }
  attr {
    key: "dtype"
    value {
      type: DT_INT32
    }
  }
  attr {
    key: "value"
    value {
      tensor {
        dtype: DT_INT32
        tensor_shape {
        }
        int_val: 0
      }
    }
  }
}
node {
  name: "parallel_read/filenames/Greater"
  op: "Greater"
  input: "parallel_read/filenames/Size"
  input: "parallel_read/filenames/Greater/y"
  attr {
    key: "T"
    value {
      type: DT_INT32
    }
  }
  attr {
    key: "_output_shapes"
    value {
      list {
        shape {
        }
      }
    }
  }
}
node {
  name: "parallel_read/filenames/Assert/Const"
  op: "Const"
  attr {
    key: "_output_shapes"
    value {
      list {
        shape {
        }
      }
    }
  }
  attr {
    key: "dtype"
    value {
      type: DT_STRING
    }
  }
  attr {
    key: "value"
    value {
      tensor {
        dtype: DT_STRING
        tensor_shape {
        }
        string_val: "string_input_producer requires a non-null input tensor"
      }
    }
  }
}
node {
  name: "parallel_read/filenames/Assert/Assert/data_0"
  op: "Const"
  attr {
    key: "_output_shapes"
    value {
      list {
        shape {
        }
      }
    }
  }
  attr {
    key: "dtype"
    value {
      type: DT_STRING
    }
  }
  attr {
    key: "value"
    value {
      tensor {
        dtype: DT_STRING
        tensor_shape {
        }
        string_val: "string_input_producer requires a non-null input tensor"
      }
    }
  }
}
node {
  name: "parallel_read/filenames/Assert/Assert"
  op: "Assert"
  input: "parallel_read/filenames/Greater"
  input: "parallel_read/filenames/Assert/Assert/data_0"
  attr {
    key: "T"
    value {
      list {
        type: DT_STRING
      }
    }
  }
  attr {
    key: "summarize"
    value {
      i: 3
    }
  }
}
node {
  name: "parallel_read/filenames/Identity"
  op: "Identity"
  input: "parallel_read/filenames/Const"
  input: "^parallel_read/filenames/Assert/Assert"
  attr {
    key: "T"
    value {
      type: DT_STRING
    }
  }
  attr {
    key: "_output_shapes"
    value {
      list {
        shape {
          dim {
            size: 1024
          }
        }
      }
    }
  }
}
node {
  name: "parallel_read/filenames/RandomShuffle"
  op: "RandomShuffle"
  input: "parallel_read/filenames/Identity"
  attr {
    key: "T"
    value {
      type: DT_STRING
    }
  }
  attr {
    key: "_output_shapes"
    value {
      list {
        shape {
          dim {
            size: 1024
          }
        }
      }
    }
  }
  attr {
    key: "seed"
    value {
      i: 0
    }
  }
  attr {
    key: "seed2"
    value {
      i: 0
    }
  }
}
node {
  name: "parallel_read/filenames"
  op: "FIFOQueueV2"
  attr {
    key: "_output_shapes"
    value {
      list {
        shape {
        }
      }
    }
  }
  attr {
    key: "capacity"
    value {
      i: 32
    }
  }
  attr {
    key: "component_types"
    value {
      list {
        type: DT_STRING
      }
    }
  }
  attr {
    key: "container"
    value {
      s: ""
    }
  }
  attr {
    key: "shapes"
    value {
      list {
        shape {
        }
      }
    }
  }
  attr {
    key: "shared_name"
    value {
      s: ""
    }
  }
}
node {
  name: "parallel_read/filenames/filenames_EnqueueMany"
  op: "QueueEnqueueManyV2"
  input: "parallel_read/filenames"
  input: "parallel_read/filenames/RandomShuffle"
  attr {
    key: "Tcomponents"
    value {
      list {
        type: DT_STRING
      }
    }
  }
  attr {
    key: "timeout_ms"
    value {
      i: -1
    }
  }
}
node {
  name: "parallel_read/filenames/filenames_Close"
  op: "QueueCloseV2"
  input: "parallel_read/filenames"
  attr {
    key: "cancel_pending_enqueues"
    value {
      b: false
    }
  }
}
node {
  name: "parallel_read/filenames/filenames_Close_1"
  op: "QueueCloseV2"
  input: "parallel_read/filenames"
  attr {
    key: "cancel_pending_enqueues"
    value {
      b: true
    }
  }
}
node {
  name: "parallel_read/filenames/filenames_Size"
  op: "QueueSizeV2"
  input: "parallel_read/filenames"
  attr {
    key: "_output_shapes"
    value {
      list {
        shape {
        }
      }
    }
  }
}
node {
  name: "parallel_read/filenames/Cast"
  op: "Cast"
  input: "parallel_read/filenames/filenames_Size"
  attr {
    key: "DstT"
    value {
      type: DT_FLOAT
    }
  }
  attr {
    key: "SrcT"
    value {
      type: DT_INT32
    }
  }
  attr {
    key: "Truncate"
    value {
      b: false
    }
  }
  attr {
    key: "_output_shapes"
    value {
      list {
        shape {
        }
      }
    }
  }
}
node {
  name: "parallel_read/filenames/mul/y"
  op: "Const"
  attr {
    key: "_output_shapes"
    value {
      list {
        shape {
        }
      }
    }
  }
  attr {
    key: "dtype"
    value {
      type: DT_FLOAT
    }
  }
  attr {
    key: "value"
    value {
      tensor {
        dtype: DT_FLOAT
        tensor_shape {
        }
        float_val: 0.03125
      }
    }
  }
}
node {
  name: "parallel_read/filenames/mul"
  op: "Mul"
  input: "parallel_read/filenames/Cast"
  input: "parallel_read/filenames/mul/y"
  attr {
    key: "T"
    value {
      type: DT_FLOAT
    }
  }
  attr {
    key: "_output_shapes"
    value {
      list {
        shape {
        }
      }
    }
  }
}
node {
  name: "parallel_read/filenames/fraction_of_32_full/tags"
  op: "Const"
  attr {
    key: "_output_shapes"
    value {
      list {
        shape {
        }
      }
    }
  }
  attr {
    key: "dtype"
    value {
      type: DT_STRING
    }
  }
  attr {
    key: "value"
    value {
      tensor {
        dtype: DT_STRING
        tensor_shape {
        }
        string_val: "parallel_read/filenames/fraction_of_32_full"
      }
    }
  }
}
node {
  name: "parallel_read/filenames/fraction_of_32_full"
  op: "ScalarSummary"
  input: "parallel_read/filenames/fraction_of_32_full/tags"
  input: "parallel_read/filenames/mul"
  attr {
    key: "T"
    value {
      type: DT_FLOAT
    }
  }
  attr {
    key: "_output_shapes"
    value {
      list {
        shape {
        }
      }
    }
  }
}
node {
  name: "parallel_read/common_queue"
  op: "RandomShuffleQueueV2"
  attr {
    key: "_output_shapes"
    value {
      list {
        shape {
        }
      }
    }
  }
  attr {
    key: "capacity"
    value {
      i: 128
    }
  }
  attr {
    key: "component_types"
    value {
      list {
        type: DT_STRING
        type: DT_STRING
      }
    }
  }
  attr {
    key: "container"
    value {
      s: ""
    }
  }
  attr {
    key: "min_after_dequeue"
    value {
      i: 64
    }
  }
  attr {
    key: "seed"
    value {
      i: 0
    }
  }
  attr {
    key: "seed2"
    value {
      i: 0
    }
  }
  attr {
    key: "shapes"
    value {
      list {
      }
    }
  }
  attr {
    key: "shared_name"
    value {
      s: ""
    }
  }
}
node {
  name: "parallel_read/common_queue_Size"
  op: "QueueSizeV2"
  input: "parallel_read/common_queue"
  attr {
    key: "_output_shapes"
    value {
      list {
        shape {
        }
      }
    }
  }
}
node {
  name: "parallel_read/Cast"
  op: "Cast"
  input: "parallel_read/common_queue_Size"
  attr {
    key: "DstT"
    value {
      type: DT_FLOAT
    }
  }
  attr {
    key: "SrcT"
    value {
      type: DT_INT32
    }
  }
  attr {
    key: "Truncate"
    value {
      b: false
    }
  }
  attr {
    key: "_output_shapes"
    value {
      list {
        shape {
        }
      }
    }
  }
}
node {
  name: "parallel_read/mul/y"
  op: "Const"
  attr {
    key: "_output_shapes"
    value {
      list {
        shape {
        }
      }
    }
  }
  attr {
    key: "dtype"
    value {
      type: DT_FLOAT
    }
  }
  attr {
    key: "value"
    value {
      tensor {
        dtype: DT_FLOAT
        tensor_shape {
        }
        float_val: 0.0078125
      }
    }
  }
}
node {
  name: "parallel_read/mul"
  op: "Mul"
  input: "parallel_read/Cast"
  input: "parallel_read/mul/y"
  attr {
    key: "T"
    value {
      type: DT_FLOAT
    }
  }
  attr {
    key: "_output_shapes"
    value {
      list {
        shape {
        }
      }
    }
  }
}
node {
  name: "parallel_read/fraction_of_128_full/tags"
  op: "Const"
  attr {
    key: "_output_shapes"
    value {
      list {
        shape {
        }
      }
    }
  }
  attr {
    key: "dtype"
    value {
      type: DT_STRING
    }
  }
  attr {
    key: "value"
    value {
      tensor {
        dtype: DT_STRING
        tensor_shape {
        }
        string_val: "parallel_read/fraction_of_128_full"
      }
    }
  }
}
node {
  name: "parallel_read/fraction_of_128_full"
  op: "ScalarSummary"
  input: "parallel_read/fraction_of_128_full/tags"
  input: "parallel_read/mul"
  attr {
    key: "T"
    value {
      type: DT_FLOAT
    }
  }
  attr {
    key: "_output_shapes"
    value {
      list {
        shape {
        }
      }
    }
  }
}
node {
  name: "parallel_read/TFRecordReaderV2"
  op: "TFRecordReaderV2"
  attr {
    key: "_output_shapes"
    value {
      list {
        shape {
        }
      }
    }
  }
  attr {
    key: "compression_type"
    value {
      s: ""
    }
  }
  attr {
    key: "container"
    value {
      s: ""
    }
  }
  attr {
    key: "shared_name"
    value {
      s: ""
    }
  }
}
node {
  name: "parallel_read/ReaderReadV2"
  op: "ReaderReadV2"
  input: "parallel_read/TFRecordReaderV2"
  input: "parallel_read/filenames"
  attr {
    key: "_output_shapes"
    value {
      list {
        shape {
        }
        shape {
        }
      }
    }
  }
}
node {
  name: "parallel_read/common_queue_enqueue"
  op: "QueueEnqueueV2"
  input: "parallel_read/common_queue"
  input: "parallel_read/ReaderReadV2"
  input: "parallel_read/ReaderReadV2:1"
  attr {
    key: "Tcomponents"
    value {
      list {
        type: DT_STRING
        type: DT_STRING
      }
    }
  }
  attr {
    key: "timeout_ms"
    value {
      i: -1
    }
  }
}
node {
  name: "parallel_read/common_queue_Close"
  op: "QueueCloseV2"
  input: "parallel_read/common_queue"
  attr {
    key: "cancel_pending_enqueues"
    value {
      b: false
    }
  }
}
node {
  name: "parallel_read/common_queue_Close_1"
  op: "QueueCloseV2"
  input: "parallel_read/common_queue"
  attr {
    key: "cancel_pending_enqueues"
    value {
      b: true
    }
  }
}
node {
  name: "parallel_read/common_queue_Dequeue"
  op: "QueueDequeueV2"
  input: "parallel_read/common_queue"
  attr {
    key: "_output_shapes"
    value {
      list {
        shape {
          unknown_rank: true
        }
        shape {
          unknown_rank: true
        }
      }
    }
  }
  attr {
    key: "component_types"
    value {
      list {
        type: DT_STRING
        type: DT_STRING
      }
    }
  }
  attr {
    key: "timeout_ms"
    value {
      i: -1
    }
  }
}
node {
  name: "ParseSingleExample/key_image/class/label"
  op: "Const"
  attr {
    key: "_output_shapes"
    value {
      list {
        shape {
        }
      }
    }
  }
  attr {
    key: "dtype"
    value {
      type: DT_INT64
    }
  }
  attr {
    key: "value"
    value {
      tensor {
        dtype: DT_INT64
        tensor_shape {
        }
        int64_val: -1
      }
    }
  }
}
node {
  name: "ParseSingleExample/Reshape/shape"
  op: "Const"
  attr {
    key: "_output_shapes"
    value {
      list {
        shape {
          dim {
          }
        }
      }
    }
  }
  attr {
    key: "dtype"
    value {
      type: DT_INT32
    }
  }
  attr {
    key: "value"
    value {
      tensor {
        dtype: DT_INT32
        tensor_shape {
          dim {
          }
        }
      }
    }
  }
}
node {
  name: "ParseSingleExample/Reshape"
  op: "Reshape"
  input: "ParseSingleExample/key_image/class/label"
  input: "ParseSingleExample/Reshape/shape"
  attr {
    key: "T"
    value {
      type: DT_INT64
    }
  }
  attr {
    key: "Tshape"
    value {
      type: DT_INT32
    }
  }
  attr {
    key: "_output_shapes"
    value {
      list {
        shape {
        }
      }
    }
  }
}
node {
  name: "ParseSingleExample/key_image/class/text"
  op: "Const"
  attr {
    key: "_output_shapes"
    value {
      list {
        shape {
        }
      }
    }
  }
  attr {
    key: "dtype"
    value {
      type: DT_STRING
    }
  }
  attr {
    key: "value"
    value {
      tensor {
        dtype: DT_STRING
        tensor_shape {
        }
        string_val: ""
      }
    }
  }
}
node {
  name: "ParseSingleExample/Reshape_1/shape"
  op: "Const"
  attr {
    key: "_output_shapes"
    value {
      list {
        shape {
          dim {
          }
        }
      }
    }
  }
  attr {
    key: "dtype"
    value {
      type: DT_INT32
    }
  }
  attr {
    key: "value"
    value {
      tensor {
        dtype: DT_INT32
        tensor_shape {
          dim {
          }
        }
      }
    }
  }
}
node {
  name: "ParseSingleExample/Reshape_1"
  op: "Reshape"
  input: "ParseSingleExample/key_image/class/text"
  input: "ParseSingleExample/Reshape_1/shape"
  attr {
    key: "T"
    value {
      type: DT_STRING
    }
  }
  attr {
    key: "Tshape"
    value {
      type: DT_INT32
    }
  }
  attr {
    key: "_output_shapes"
    value {
      list {
        shape {
        }
      }
    }
  }
}
node {
  name: "ParseSingleExample/key_image/encoded"
  op: "Const"
  attr {
    key: "_output_shapes"
    value {
      list {
        shape {
        }
      }
    }
  }
  attr {
    key: "dtype"
    value {
      type: DT_STRING
    }
  }
  attr {
    key: "value"
    value {
      tensor {
        dtype: DT_STRING
        tensor_shape {
        }
        string_val: ""
      }
    }
  }
}
node {
  name: "ParseSingleExample/Reshape_2/shape"
  op: "Const"
  attr {
    key: "_output_shapes"
    value {
      list {
        shape {
          dim {
          }
        }
      }
    }
  }
  attr {
    key: "dtype"
    value {
      type: DT_INT32
    }
  }
  attr {
    key: "value"
    value {
      tensor {
        dtype: DT_INT32
        tensor_shape {
          dim {
          }
        }
      }
    }
  }
}
node {
  name: "ParseSingleExample/Reshape_2"
  op: "Reshape"
  input: "ParseSingleExample/key_image/encoded"
  input: "ParseSingleExample/Reshape_2/shape"
  attr {
    key: "T"
    value {
      type: DT_STRING
    }
  }
  attr {
    key: "Tshape"
    value {
      type: DT_INT32
    }
  }
  attr {
    key: "_output_shapes"
    value {
      list {
        shape {
        }
      }
    }
  }
}
node {
  name: "ParseSingleExample/key_image/format"
  op: "Const"
  attr {
    key: "_output_shapes"
    value {
      list {
        shape {
        }
      }
    }
  }
  attr {
    key: "dtype"
    value {
      type: DT_STRING
    }
  }
  attr {
    key: "value"
    value {
      tensor {
        dtype: DT_STRING
        tensor_shape {
        }
        string_val: "jpeg"
      }
    }
  }
}
node {
  name: "ParseSingleExample/Reshape_3/shape"
  op: "Const"
  attr {
    key: "_output_shapes"
    value {
      list {
        shape {
          dim {
          }
        }
      }
    }
  }
  attr {
    key: "dtype"
    value {
      type: DT_INT32
    }
  }
  attr {
    key: "value"
    value {
      tensor {
        dtype: DT_INT32
        tensor_shape {
          dim {
          }
        }
      }
    }
  }
}
node {
  name: "ParseSingleExample/Reshape_3"
  op: "Reshape"
  input: "ParseSingleExample/key_image/format"
  input: "ParseSingleExample/Reshape_3/shape"
  attr {
    key: "T"
    value {
      type: DT_STRING
    }
  }
  attr {
    key: "Tshape"
    value {
      type: DT_INT32
    }
  }
  attr {
    key: "_output_shapes"
    value {
      list {
        shape {
        }
      }
    }
  }
}
node {
  name: "ParseSingleExample/ParseSingleExample"
  op: "ParseSingleExample"
  input: "parallel_read/common_queue_Dequeue:1"
  input: "ParseSingleExample/Reshape"
  input: "ParseSingleExample/Reshape_1"
  input: "ParseSingleExample/Reshape_2"
  input: "ParseSingleExample/Reshape_3"
  attr {
    key: "Tdense"
    value {
      list {
        type: DT_INT64
        type: DT_STRING
        type: DT_STRING
        type: DT_STRING
      }
    }
  }
  attr {
    key: "_output_shapes"
    value {
      list {
        shape {
          dim {
            size: -1
          }
          dim {
            size: 1
          }
        }
        shape {
          dim {
            size: -1
          }
          dim {
            size: 1
          }
        }
        shape {
          dim {
            size: -1
          }
          dim {
            size: 1
          }
        }
        shape {
          dim {
            size: -1
          }
          dim {
            size: 1
          }
        }
        shape {
          dim {
            size: -1
          }
          dim {
            size: 1
          }
        }
        shape {
          dim {
            size: -1
          }
        }
        shape {
          dim {
            size: -1
          }
        }
        shape {
          dim {
            size: -1
          }
        }
        shape {
          dim {
            size: -1
          }
        }
        shape {
          dim {
            size: -1
          }
        }
        shape {
          dim {
            size: 1
          }
        }
        shape {
          dim {
            size: 1
          }
        }
        shape {
          dim {
            size: 1
          }
        }
        shape {
          dim {
            size: 1
          }
        }
        shape {
          dim {
            size: 1
          }
        }
        shape {
        }
        shape {
        }
        shape {
        }
        shape {
        }
      }
    }
  }
  attr {
    key: "dense_keys"
    value {
      list {
        s: "image/class/label"
        s: "image/class/text"
        s: "image/encoded"
        s: "image/format"
      }
    }
  }
  attr {
    key: "dense_shapes"
    value {
      list {
        shape {
        }
        shape {
        }
        shape {
        }
        shape {
        }
      }
    }
  }
  attr {
    key: "num_sparse"
    value {
      i: 5
    }
  }
  attr {
    key: "sparse_keys"
    value {
      list {
        s: "image/object/bbox/xmax"
        s: "image/object/bbox/xmin"
        s: "image/object/bbox/ymax"
        s: "image/object/bbox/ymin"
        s: "image/object/class/label"
      }
    }
  }
  attr {
    key: "sparse_types"
    value {
      list {
        type: DT_FLOAT
        type: DT_FLOAT
        type: DT_FLOAT
        type: DT_FLOAT
        type: DT_INT64
      }
    }
  }
}
node {
  name: "Reshape/shape"
  op: "Const"
  attr {
    key: "_output_shapes"
    value {
      list {
        shape {
          dim {
          }
        }
      }
    }
  }
  attr {
    key: "dtype"
    value {
      type: DT_INT32
    }
  }
  attr {
    key: "value"
    value {
      tensor {
        dtype: DT_INT32
        tensor_shape {
          dim {
          }
        }
      }
    }
  }
}
node {
  name: "Reshape"
  op: "Reshape"
  input: "ParseSingleExample/ParseSingleExample:15"
  input: "Reshape/shape"
  attr {
    key: "T"
    value {
      type: DT_INT64
    }
  }
  attr {
    key: "Tshape"
    value {
      type: DT_INT32
    }
  }
  attr {
    key: "_output_shapes"
    value {
      list {
        shape {
        }
      }
    }
  }
}
node {
  name: "Reshape_1/shape"
  op: "Const"
  attr {
    key: "_output_shapes"
    value {
      list {
        shape {
          dim {
          }
        }
      }
    }
  }
  attr {
    key: "dtype"
    value {
      type: DT_INT32
    }
  }
  attr {
    key: "value"
    value {
      tensor {
        dtype: DT_INT32
        tensor_shape {
          dim {
          }
        }
      }
    }
  }
}
node {
  name: "Reshape_1"
  op: "Reshape"
  input: "ParseSingleExample/ParseSingleExample:16"
  input: "Reshape_1/shape"
  attr {
    key: "T"
    value {
      type: DT_STRING
    }
  }
  attr {
    key: "Tshape"
    value {
      type: DT_INT32
    }
  }
  attr {
    key: "_output_shapes"
    value {
      list {
        shape {
        }
      }
    }
  }
}
node {
  name: "Reshape_2/shape"
  op: "Const"
  attr {
    key: "_output_shapes"
    value {
      list {
        shape {
          dim {
          }
        }
      }
    }
  }
  attr {
    key: "dtype"
    value {
      type: DT_INT32
    }
  }
  attr {
    key: "value"
    value {
      tensor {
        dtype: DT_INT32
        tensor_shape {
          dim {
          }
        }
      }
    }
  }
}
node {
  name: "Reshape_2"
  op: "Reshape"
  input: "ParseSingleExample/ParseSingleExample:17"
  input: "Reshape_2/shape"
  attr {
    key: "T"
    value {
      type: DT_STRING
    }
  }
  attr {
    key: "Tshape"
    value {
      type: DT_INT32
    }
  }
  attr {
    key: "_output_shapes"
    value {
      list {
        shape {
        }
      }
    }
  }
}
node {
  name: "Reshape_3/shape"
  op: "Const"
  attr {
    key: "_output_shapes"
    value {
      list {
        shape {
          dim {
          }
        }
      }
    }
  }
  attr {
    key: "dtype"
    value {
      type: DT_INT32
    }
  }
  attr {
    key: "value"
    value {
      tensor {
        dtype: DT_INT32
        tensor_shape {
          dim {
          }
        }
      }
    }
  }
}
node {
  name: "Reshape_3"
  op: "Reshape"
  input: "ParseSingleExample/ParseSingleExample:18"
  input: "Reshape_3/shape"
  attr {
    key: "T"
    value {
      type: DT_STRING
    }
  }
  attr {
    key: "Tshape"
    value {
      type: DT_INT32
    }
  }
  attr {
    key: "_output_shapes"
    value {
      list {
        shape {
        }
      }
    }
  }
}
node {
  name: "Equal/y"
  op: "Const"
  attr {
    key: "_output_shapes"
    value {
      list {
        shape {
        }
      }
    }
  }
  attr {
    key: "dtype"
    value {
      type: DT_STRING
    }
  }
  attr {
    key: "value"
    value {
      tensor {
        dtype: DT_STRING
        tensor_shape {
        }
        string_val: "raw"
      }
    }
  }
}
node {
  name: "Equal"
  op: "Equal"
  input: "Reshape_3"
  input: "Equal/y"
  attr {
    key: "T"
    value {
      type: DT_STRING
    }
  }
  attr {
    key: "_output_shapes"
    value {
      list {
        shape {
        }
      }
    }
  }
  attr {
    key: "incompatible_shape_error"
    value {
      b: true
    }
  }
}
node {
  name: "Equal_1/y"
  op: "Const"
  attr {
    key: "_output_shapes"
    value {
      list {
        shape {
        }
      }
    }
  }
  attr {
    key: "dtype"
    value {
      type: DT_STRING
    }
  }
  attr {
    key: "value"
    value {
      tensor {
        dtype: DT_STRING
        tensor_shape {
        }
        string_val: "RAW"
      }
    }
  }
}
node {
  name: "Equal_1"
  op: "Equal"
  input: "Reshape_3"
  input: "Equal_1/y"
  attr {
    key: "T"
    value {
      type: DT_STRING
    }
  }
  attr {
    key: "_output_shapes"
    value {
      list {
        shape {
        }
      }
    }
  }
  attr {
    key: "incompatible_shape_error"
    value {
      b: true
    }
  }
}
node {
  name: "LogicalOr"
  op: "LogicalOr"
  input: "Equal"
  input: "Equal_1"
  attr {
    key: "_output_shapes"
    value {
      list {
        shape {
        }
      }
    }
  }
}
node {
  name: "case/preds_c"
  op: "Pack"
  input: "LogicalOr"
  attr {
    key: "N"
    value {
      i: 1
    }
  }
  attr {
    key: "T"
    value {
      type: DT_BOOL
    }
  }
  attr {
    key: "_output_shapes"
    value {
      list {
        shape {
          dim {
            size: 1
          }
        }
      }
    }
  }
  attr {
    key: "axis"
    value {
      i: 0
    }
  }
}
node {
  name: "case/Cast"
  op: "Cast"
  input: "case/preds_c"
  attr {
    key: "DstT"
    value {
      type: DT_INT32
    }
  }
  attr {
    key: "SrcT"
    value {
      type: DT_BOOL
    }
  }
  attr {
    key: "Truncate"
    value {
      b: false
    }
  }
  attr {
    key: "_output_shapes"
    value {
      list {
        shape {
          dim {
            size: 1
          }
        }
      }
    }
  }
}
node {
  name: "case/Const"
  op: "Const"
  attr {
    key: "_output_shapes"
    value {
      list {
        shape {
          dim {
            size: 1
          }
        }
      }
    }
  }
  attr {
    key: "dtype"
    value {
      type: DT_INT32
    }
  }
  attr {
    key: "value"
    value {
      tensor {
        dtype: DT_INT32
        tensor_shape {
          dim {
            size: 1
          }
        }
        int_val: 0
      }
    }
  }
}
node {
  name: "case/num_true_conds"
  op: "Sum"
  input: "case/Cast"
  input: "case/Const"
  attr {
    key: "T"
    value {
      type: DT_INT32
    }
  }
  attr {
    key: "Tidx"
    value {
      type: DT_INT32
    }
  }
  attr {
    key: "_output_shapes"
    value {
      list {
        shape {
        }
      }
    }
  }
  attr {
    key: "keep_dims"
    value {
      b: false
    }
  }
}
node {
  name: "case/n_true_conds"
  op: "Const"
  attr {
    key: "_output_shapes"
    value {
      list {
        shape {
        }
      }
    }
  }
  attr {
    key: "dtype"
    value {
      type: DT_INT32
    }
  }
  attr {
    key: "value"
    value {
      tensor {
        dtype: DT_INT32
        tensor_shape {
        }
        int_val: 1
      }
    }
  }
}
node {
  name: "case/LessEqual"
  op: "LessEqual"
  input: "case/num_true_conds"
  input: "case/n_true_conds"
  attr {
    key: "T"
    value {
      type: DT_INT32
    }
  }
  attr {
    key: "_output_shapes"
    value {
      list {
        shape {
        }
      }
    }
  }
}
node {
  name: "case/Assert/Const"
  op: "Const"
  attr {
    key: "_output_shapes"
    value {
      list {
        shape {
        }
      }
    }
  }
  attr {
    key: "dtype"
    value {
      type: DT_STRING
    }
  }
  attr {
    key: "value"
    value {
      tensor {
        dtype: DT_STRING
        tensor_shape {
        }
        string_val: "Input error: exclusive=True: more than 1 conditions (LogicalOr:0) evaluated as True:"
      }
    }
  }
}
node {
  name: "case/Assert/AssertGuard/Switch"
  op: "Switch"
  input: "case/LessEqual"
  input: "case/LessEqual"
  attr {
    key: "T"
    value {
      type: DT_BOOL
    }
  }
  attr {
    key: "_output_shapes"
    value {
      list {
        shape {
        }
        shape {
        }
      }
    }
  }
}
node {
  name: "case/Assert/AssertGuard/switch_t"
  op: "Identity"
  input: "case/Assert/AssertGuard/Switch:1"
  attr {
    key: "T"
    value {
      type: DT_BOOL
    }
  }
  attr {
    key: "_output_shapes"
    value {
      list {
        shape {
        }
      }
    }
  }
}
node {
  name: "case/Assert/AssertGuard/switch_f"
  op: "Identity"
  input: "case/Assert/AssertGuard/Switch"
  attr {
    key: "T"
    value {
      type: DT_BOOL
    }
  }
  attr {
    key: "_output_shapes"
    value {
      list {
        shape {
        }
      }
    }
  }
}
node {
  name: "case/Assert/AssertGuard/pred_id"
  op: "Identity"
  input: "case/LessEqual"
  attr {
    key: "T"
    value {
      type: DT_BOOL
    }
  }
  attr {
    key: "_output_shapes"
    value {
      list {
        shape {
        }
      }
    }
  }
}
node {
  name: "case/Assert/AssertGuard/NoOp"
  op: "NoOp"
  input: "^case/Assert/AssertGuard/switch_t"
}
node {
  name: "case/Assert/AssertGuard/control_dependency"
  op: "Identity"
  input: "case/Assert/AssertGuard/switch_t"
  input: "^case/Assert/AssertGuard/NoOp"
  attr {
    key: "T"
    value {
      type: DT_BOOL
    }
  }
  attr {
    key: "_class"
    value {
      list {
        s: "loc:@case/Assert/AssertGuard/switch_t"
      }
    }
  }
  attr {
    key: "_output_shapes"
    value {
      list {
        shape {
        }
      }
    }
  }
}
node {
  name: "case/Assert/AssertGuard/Assert/data_0"
  op: "Const"
  input: "^case/Assert/AssertGuard/switch_f"
  attr {
    key: "_output_shapes"
    value {
      list {
        shape {
        }
      }
    }
  }
  attr {
    key: "dtype"
    value {
      type: DT_STRING
    }
  }
  attr {
    key: "value"
    value {
      tensor {
        dtype: DT_STRING
        tensor_shape {
        }
        string_val: "Input error: exclusive=True: more than 1 conditions (LogicalOr:0) evaluated as True:"
      }
    }
  }
}
node {
  name: "case/Assert/AssertGuard/Assert"
  op: "Assert"
  input: "case/Assert/AssertGuard/Assert/Switch"
  input: "case/Assert/AssertGuard/Assert/data_0"
  input: "case/Assert/AssertGuard/Assert/Switch_1"
  attr {
    key: "T"
    value {
      list {
        type: DT_STRING
        type: DT_BOOL
      }
    }
  }
  attr {
    key: "summarize"
    value {
      i: 1
    }
  }
}
node {
  name: "case/Assert/AssertGuard/Assert/Switch"
  op: "Switch"
  input: "case/LessEqual"
  input: "case/Assert/AssertGuard/pred_id"
  attr {
    key: "T"
    value {
      type: DT_BOOL
    }
  }
  attr {
    key: "_class"
    value {
      list {
        s: "loc:@case/LessEqual"
      }
    }
  }
  attr {
    key: "_output_shapes"
    value {
      list {
        shape {
        }
        shape {
        }
      }
    }
  }
}
node {
  name: "case/Assert/AssertGuard/Assert/Switch_1"
  op: "Switch"
  input: "case/preds_c"
  input: "case/Assert/AssertGuard/pred_id"
  attr {
    key: "T"
    value {
      type: DT_BOOL
    }
  }
  attr {
    key: "_class"
    value {
      list {
        s: "loc:@case/preds_c"
      }
    }
  }
  attr {
    key: "_output_shapes"
    value {
      list {
        shape {
          dim {
            size: 1
          }
        }
        shape {
          dim {
            size: 1
          }
        }
      }
    }
  }
}
node {
  name: "case/Assert/AssertGuard/control_dependency_1"
  op: "Identity"
  input: "case/Assert/AssertGuard/switch_f"
  input: "^case/Assert/AssertGuard/Assert"
  attr {
    key: "T"
    value {
      type: DT_BOOL
    }
  }
  attr {
    key: "_class"
    value {
      list {
        s: "loc:@case/Assert/AssertGuard/switch_f"
      }
    }
  }
  attr {
    key: "_output_shapes"
    value {
      list {
        shape {
        }
      }
    }
  }
}
node {
  name: "case/Assert/AssertGuard/Merge"
  op: "Merge"
  input: "case/Assert/AssertGuard/control_dependency_1"
  input: "case/Assert/AssertGuard/control_dependency"
  attr {
    key: "N"
    value {
      i: 2
    }
  }
  attr {
    key: "T"
    value {
      type: DT_BOOL
    }
  }
  attr {
    key: "_output_shapes"
    value {
      list {
        shape {
        }
        shape {
        }
      }
    }
  }
}
node {
  name: "case/cond/Switch"
  op: "Switch"
  input: "LogicalOr"
  input: "LogicalOr"
  input: "^case/Assert/AssertGuard/Merge"
  attr {
    key: "T"
    value {
      type: DT_BOOL
    }
  }
  attr {
    key: "_output_shapes"
    value {
      list {
        shape {
        }
        shape {
        }
      }
    }
  }
}
node {
  name: "case/cond/switch_t"
  op: "Identity"
  input: "case/cond/Switch:1"
  attr {
    key: "T"
    value {
      type: DT_BOOL
    }
  }
  attr {
    key: "_output_shapes"
    value {
      list {
        shape {
        }
      }
    }
  }
}
node {
  name: "case/cond/switch_f"
  op: "Identity"
  input: "case/cond/Switch"
  attr {
    key: "T"
    value {
      type: DT_BOOL
    }
  }
  attr {
    key: "_output_shapes"
    value {
      list {
        shape {
        }
      }
    }
  }
}
node {
  name: "case/cond/pred_id"
  op: "Identity"
  input: "LogicalOr"
  input: "^case/Assert/AssertGuard/Merge"
  attr {
    key: "T"
    value {
      type: DT_BOOL
    }
  }
  attr {
    key: "_output_shapes"
    value {
      list {
        shape {
        }
      }
    }
  }
}
node {
  name: "case/cond/DecodeRaw"
  op: "DecodeRaw"
  input: "case/cond/DecodeRaw/Switch:1"
  input: "^case/Assert/AssertGuard/Merge"
  attr {
    key: "_output_shapes"
    value {
      list {
        shape {
          dim {
            size: -1
          }
        }
      }
    }
  }
  attr {
    key: "little_endian"
    value {
      b: true
    }
  }
  attr {
    key: "out_type"
    value {
      type: DT_UINT8
    }
  }
}
node {
  name: "case/cond/DecodeRaw/Switch"
  op: "Switch"
  input: "Reshape_2"
  input: "case/cond/pred_id"
  attr {
    key: "T"
    value {
      type: DT_STRING
    }
  }
  attr {
    key: "_class"
    value {
      list {
        s: "loc:@Reshape_2"
      }
    }
  }
  attr {
    key: "_output_shapes"
    value {
      list {
        shape {
        }
        shape {
        }
      }
    }
  }
}
node {
  name: "case/cond/is_jpeg/Substr/pos"
  op: "Const"
  input: "^case/Assert/AssertGuard/Merge"
  input: "^case/cond/switch_f"
  attr {
    key: "_output_shapes"
    value {
      list {
        shape {
        }
      }
    }
  }
  attr {
    key: "dtype"
    value {
      type: DT_INT32
    }
  }
  attr {
    key: "value"
    value {
      tensor {
        dtype: DT_INT32
        tensor_shape {
        }
        int_val: 0
      }
    }
  }
}
node {
  name: "case/cond/is_jpeg/Substr/len"
  op: "Const"
  input: "^case/Assert/AssertGuard/Merge"
  input: "^case/cond/switch_f"
  attr {
    key: "_output_shapes"
    value {
      list {
        shape {
        }
      }
    }
  }
  attr {
    key: "dtype"
    value {
      type: DT_INT32
    }
  }
  attr {
    key: "value"
    value {
      tensor {
        dtype: DT_INT32
        tensor_shape {
        }
        int_val: 3
      }
    }
  }
}
node {
  name: "case/cond/is_jpeg/Substr"
  op: "Substr"
  input: "case/cond/is_jpeg/Substr/Switch"
  input: "case/cond/is_jpeg/Substr/pos"
  input: "case/cond/is_jpeg/Substr/len"
  attr {
    key: "T"
    value {
      type: DT_INT32
    }
  }
  attr {
    key: "_output_shapes"
    value {
      list {
        shape {
        }
      }
    }
  }
  attr {
    key: "unit"
    value {
      s: "BYTE"
    }
  }
}
node {
  name: "case/cond/is_jpeg/Substr/Switch"
  op: "Switch"
  input: "Reshape_2"
  input: "case/cond/pred_id"
  attr {
    key: "T"
    value {
      type: DT_STRING
    }
  }
  attr {
    key: "_class"
    value {
      list {
        s: "loc:@Reshape_2"
      }
    }
  }
  attr {
    key: "_output_shapes"
    value {
      list {
        shape {
        }
        shape {
        }
      }
    }
  }
}
node {
  name: "case/cond/is_jpeg/Equal/y"
  op: "Const"
  input: "^case/Assert/AssertGuard/Merge"
  input: "^case/cond/switch_f"
  attr {
    key: "_output_shapes"
    value {
      list {
        shape {
        }
      }
    }
  }
  attr {
    key: "dtype"
    value {
      type: DT_STRING
    }
  }
  attr {
    key: "value"
    value {
      tensor {
        dtype: DT_STRING
        tensor_shape {
        }
        string_val: "\377\330\377"
      }
    }
  }
}
node {
  name: "case/cond/is_jpeg/Equal"
  op: "Equal"
  input: "case/cond/is_jpeg/Substr"
  input: "case/cond/is_jpeg/Equal/y"
  attr {
    key: "T"
    value {
      type: DT_STRING
    }
  }
  attr {
    key: "_output_shapes"
    value {
      list {
        shape {
        }
      }
    }
  }
  attr {
    key: "incompatible_shape_error"
    value {
      b: true
    }
  }
}
node {
  name: "case/cond/cond_jpeg/Switch"
  op: "Switch"
  input: "case/cond/is_jpeg/Equal"
  input: "case/cond/is_jpeg/Equal"
  attr {
    key: "T"
    value {
      type: DT_BOOL
    }
  }
  attr {
    key: "_output_shapes"
    value {
      list {
        shape {
        }
        shape {
        }
      }
    }
  }
}
node {
  name: "case/cond/cond_jpeg/switch_t"
  op: "Identity"
  input: "case/cond/cond_jpeg/Switch:1"
  attr {
    key: "T"
    value {
      type: DT_BOOL
    }
  }
  attr {
    key: "_output_shapes"
    value {
      list {
        shape {
        }
      }
    }
  }
}
node {
  name: "case/cond/cond_jpeg/switch_f"
  op: "Identity"
  input: "case/cond/cond_jpeg/Switch"
  attr {
    key: "T"
    value {
      type: DT_BOOL
    }
  }
  attr {
    key: "_output_shapes"
    value {
      list {
        shape {
        }
      }
    }
  }
}
node {
  name: "case/cond/cond_jpeg/pred_id"
  op: "Identity"
  input: "case/cond/is_jpeg/Equal"
  attr {
    key: "T"
    value {
      type: DT_BOOL
    }
  }
  attr {
    key: "_output_shapes"
    value {
      list {
        shape {
        }
      }
    }
  }
}
node {
  name: "case/cond/cond_jpeg/DecodeJpeg"
  op: "DecodeJpeg"
  input: "case/cond/cond_jpeg/DecodeJpeg/Switch:1"
  input: "^case/Assert/AssertGuard/Merge"
  attr {
    key: "_output_shapes"
    value {
      list {
        shape {
          dim {
            size: -1
          }
          dim {
            size: -1
          }
          dim {
            size: 3
          }
        }
      }
    }
  }
  attr {
    key: "acceptable_fraction"
    value {
      f: 1.0
    }
  }
  attr {
    key: "channels"
    value {
      i: 3
    }
  }
  attr {
    key: "dct_method"
    value {
      s: ""
    }
  }
  attr {
    key: "fancy_upscaling"
    value {
      b: true
    }
  }
  attr {
    key: "ratio"
    value {
      i: 1
    }
  }
  attr {
    key: "try_recover_truncated"
    value {
      b: false
    }
  }
}
node {
  name: "case/cond/cond_jpeg/DecodeJpeg/Switch"
  op: "Switch"
  input: "case/cond/is_jpeg/Substr/Switch"
  input: "case/cond/cond_jpeg/pred_id"
  attr {
    key: "T"
    value {
      type: DT_STRING
    }
  }
  attr {
    key: "_class"
    value {
      list {
        s: "loc:@Reshape_2"
      }
    }
  }
  attr {
    key: "_output_shapes"
    value {
      list {
        shape {
        }
        shape {
        }
      }
    }
  }
}
node {
  name: "case/cond/cond_jpeg/decode_image/Substr/pos"
  op: "Const"
  input: "^case/Assert/AssertGuard/Merge"
  input: "^case/cond/cond_jpeg/switch_f"
  attr {
    key: "_output_shapes"
    value {
      list {
        shape {
        }
      }
    }
  }
  attr {
    key: "dtype"
    value {
      type: DT_INT32
    }
  }
  attr {
    key: "value"
    value {
      tensor {
        dtype: DT_INT32
        tensor_shape {
        }
        int_val: 0
      }
    }
  }
}
node {
  name: "case/cond/cond_jpeg/decode_image/Substr/len"
  op: "Const"
  input: "^case/Assert/AssertGuard/Merge"
  input: "^case/cond/cond_jpeg/switch_f"
  attr {
    key: "_output_shapes"
    value {
      list {
        shape {
        }
      }
    }
  }
  attr {
    key: "dtype"
    value {
      type: DT_INT32
    }
  }
  attr {
    key: "value"
    value {
      tensor {
        dtype: DT_INT32
        tensor_shape {
        }
        int_val: 3
      }
    }
  }
}
node {
  name: "case/cond/cond_jpeg/decode_image/Substr"
  op: "Substr"
  input: "case/cond/cond_jpeg/decode_image/Substr/Switch"
  input: "case/cond/cond_jpeg/decode_image/Substr/pos"
  input: "case/cond/cond_jpeg/decode_image/Substr/len"
  attr {
    key: "T"
    value {
      type: DT_INT32
    }
  }
  attr {
    key: "_output_shapes"
    value {
      list {
        shape {
        }
      }
    }
  }
  attr {
    key: "unit"
    value {
      s: "BYTE"
    }
  }
}
node {
  name: "case/cond/cond_jpeg/decode_image/Substr/Switch"
  op: "Switch"
  input: "case/cond/is_jpeg/Substr/Switch"
  input: "case/cond/cond_jpeg/pred_id"
  attr {
    key: "T"
    value {
      type: DT_STRING
    }
  }
  attr {
    key: "_class"
    value {
      list {
        s: "loc:@Reshape_2"
      }
    }
  }
  attr {
    key: "_output_shapes"
    value {
      list {
        shape {
        }
        shape {
        }
      }
    }
  }
}
node {
  name: "case/cond/cond_jpeg/decode_image/is_jpeg/Substr/pos"
  op: "Const"
  input: "^case/Assert/AssertGuard/Merge"
  input: "^case/cond/cond_jpeg/switch_f"
  attr {
    key: "_output_shapes"
    value {
      list {
        shape {
        }
      }
    }
  }
  attr {
    key: "dtype"
    value {
      type: DT_INT32
    }
  }
  attr {
    key: "value"
    value {
      tensor {
        dtype: DT_INT32
        tensor_shape {
        }
        int_val: 0
      }
    }
  }
}
node {
  name: "case/cond/cond_jpeg/decode_image/is_jpeg/Substr/len"
  op: "Const"
  input: "^case/Assert/AssertGuard/Merge"
  input: "^case/cond/cond_jpeg/switch_f"
  attr {
    key: "_output_shapes"
    value {
      list {
        shape {
        }
      }
    }
  }
  attr {
    key: "dtype"
    value {
      type: DT_INT32
    }
  }
  attr {
    key: "value"
    value {
      tensor {
        dtype: DT_INT32
        tensor_shape {
        }
        int_val: 3
      }
    }
  }
}
node {
  name: "case/cond/cond_jpeg/decode_image/is_jpeg/Substr"
  op: "Substr"
  input: "case/cond/cond_jpeg/decode_image/Substr/Switch"
  input: "case/cond/cond_jpeg/decode_image/is_jpeg/Substr/pos"
  input: "case/cond/cond_jpeg/decode_image/is_jpeg/Substr/len"
  attr {
    key: "T"
    value {
      type: DT_INT32
    }
  }
  attr {
    key: "_output_shapes"
    value {
      list {
        shape {
        }
      }
    }
  }
  attr {
    key: "unit"
    value {
      s: "BYTE"
    }
  }
}
node {
  name: "case/cond/cond_jpeg/decode_image/is_jpeg/Equal/y"
  op: "Const"
  input: "^case/Assert/AssertGuard/Merge"
  input: "^case/cond/cond_jpeg/switch_f"
  attr {
    key: "_output_shapes"
    value {
      list {
        shape {
        }
      }
    }
  }
  attr {
    key: "dtype"
    value {
      type: DT_STRING
    }
  }
  attr {
    key: "value"
    value {
      tensor {
        dtype: DT_STRING
        tensor_shape {
        }
        string_val: "\377\330\377"
      }
    }
  }
}
node {
  name: "case/cond/cond_jpeg/decode_image/is_jpeg/Equal"
  op: "Equal"
  input: "case/cond/cond_jpeg/decode_image/is_jpeg/Substr"
  input: "case/cond/cond_jpeg/decode_image/is_jpeg/Equal/y"
  attr {
    key: "T"
    value {
      type: DT_STRING
    }
  }
  attr {
    key: "_output_shapes"
    value {
      list {
        shape {
        }
      }
    }
  }
  attr {
    key: "incompatible_shape_error"
    value {
      b: true
    }
  }
}
node {
  name: "case/cond/cond_jpeg/decode_image/cond_jpeg/Switch"
  op: "Switch"
  input: "case/cond/cond_jpeg/decode_image/is_jpeg/Equal"
  input: "case/cond/cond_jpeg/decode_image/is_jpeg/Equal"
  attr {
    key: "T"
    value {
      type: DT_BOOL
    }
  }
  attr {
    key: "_output_shapes"
    value {
      list {
        shape {
        }
        shape {
        }
      }
    }
  }
}
node {
  name: "case/cond/cond_jpeg/decode_image/cond_jpeg/switch_t"
  op: "Identity"
  input: "case/cond/cond_jpeg/decode_image/cond_jpeg/Switch:1"
  attr {
    key: "T"
    value {
      type: DT_BOOL
    }
  }
  attr {
    key: "_output_shapes"
    value {
      list {
        shape {
        }
      }
    }
  }
}
node {
  name: "case/cond/cond_jpeg/decode_image/cond_jpeg/switch_f"
  op: "Identity"
  input: "case/cond/cond_jpeg/decode_image/cond_jpeg/Switch"
  attr {
    key: "T"
    value {
      type: DT_BOOL
    }
  }
  attr {
    key: "_output_shapes"
    value {
      list {
        shape {
        }
      }
    }
  }
}
node {
  name: "case/cond/cond_jpeg/decode_image/cond_jpeg/pred_id"
  op: "Identity"
  input: "case/cond/cond_jpeg/decode_image/is_jpeg/Equal"
  attr {
    key: "T"
    value {
      type: DT_BOOL
    }
  }
  attr {
    key: "_output_shapes"
    value {
      list {
        shape {
        }
      }
    }
  }
}
node {
  name: "case/cond/cond_jpeg/decode_image/cond_jpeg/check_jpeg_channels/x"
  op: "Const"
  input: "^case/Assert/AssertGuard/Merge"
  input: "^case/cond/cond_jpeg/decode_image/cond_jpeg/switch_t"
  attr {
    key: "_output_shapes"
    value {
      list {
        shape {
        }
      }
    }
  }
  attr {
    key: "dtype"
    value {
      type: DT_INT32
    }
  }
  attr {
    key: "value"
    value {
      tensor {
        dtype: DT_INT32
        tensor_shape {
        }
        int_val: 3
      }
    }
  }
}
node {
  name: "case/cond/cond_jpeg/decode_image/cond_jpeg/check_jpeg_channels/y"
  op: "Const"
  input: "^case/Assert/AssertGuard/Merge"
  input: "^case/cond/cond_jpeg/decode_image/cond_jpeg/switch_t"
  attr {
    key: "_output_shapes"
    value {
      list {
        shape {
        }
      }
    }
  }
  attr {
    key: "dtype"
    value {
      type: DT_INT32
    }
  }
  attr {
    key: "value"
    value {
      tensor {
        dtype: DT_INT32
        tensor_shape {
        }
        int_val: 4
      }
    }
  }
}
node {
  name: "case/cond/cond_jpeg/decode_image/cond_jpeg/check_jpeg_channels"
  op: "NotEqual"
  input: "case/cond/cond_jpeg/decode_image/cond_jpeg/check_jpeg_channels/x"
  input: "case/cond/cond_jpeg/decode_image/cond_jpeg/check_jpeg_channels/y"
  attr {
    key: "T"
    value {
      type: DT_INT32
    }
  }
  attr {
    key: "_output_shapes"
    value {
      list {
        shape {
        }
      }
    }
  }
  attr {
    key: "incompatible_shape_error"
    value {
      b: true
    }
  }
}
node {
  name: "case/cond/cond_jpeg/decode_image/cond_jpeg/Assert/Const"
  op: "Const"
  input: "^case/Assert/AssertGuard/Merge"
  input: "^case/cond/cond_jpeg/decode_image/cond_jpeg/switch_t"
  attr {
    key: "_output_shapes"
    value {
      list {
        shape {
        }
      }
    }
  }
  attr {
    key: "dtype"
    value {
      type: DT_STRING
    }
  }
  attr {
    key: "value"
    value {
      tensor {
        dtype: DT_STRING
        tensor_shape {
        }
        string_val: "Channels must be in (None, 0, 1, 3) when decoding JPEG images"
      }
    }
  }
}
node {
  name: "case/cond/cond_jpeg/decode_image/cond_jpeg/Assert/Assert/data_0"
  op: "Const"
  input: "^case/Assert/AssertGuard/Merge"
  input: "^case/cond/cond_jpeg/decode_image/cond_jpeg/switch_t"
  attr {
    key: "_output_shapes"
    value {
      list {
        shape {
        }
      }
    }
  }
  attr {
    key: "dtype"
    value {
      type: DT_STRING
    }
  }
  attr {
    key: "value"
    value {
      tensor {
        dtype: DT_STRING
        tensor_shape {
        }
        string_val: "Channels must be in (None, 0, 1, 3) when decoding JPEG images"
      }
    }
  }
}
node {
  name: "case/cond/cond_jpeg/decode_image/cond_jpeg/Assert/Assert"
  op: "Assert"
  input: "case/cond/cond_jpeg/decode_image/cond_jpeg/check_jpeg_channels"
  input: "case/cond/cond_jpeg/decode_image/cond_jpeg/Assert/Assert/data_0"
  attr {
    key: "T"
    value {
      list {
        type: DT_STRING
      }
    }
  }
  attr {
    key: "summarize"
    value {
      i: 3
    }
  }
}
node {
  name: "case/cond/cond_jpeg/decode_image/cond_jpeg/DecodeJpeg"
  op: "DecodeJpeg"
  input: "case/cond/cond_jpeg/decode_image/cond_jpeg/DecodeJpeg/Switch:1"
  input: "^case/Assert/AssertGuard/Merge"
  input: "^case/cond/cond_jpeg/decode_image/cond_jpeg/Assert/Assert"
  attr {
    key: "_output_shapes"
    value {
      list {
        shape {
          dim {
            size: -1
          }
          dim {
            size: -1
          }
          dim {
            size: 3
          }
        }
      }
    }
  }
  attr {
    key: "acceptable_fraction"
    value {
      f: 1.0
    }
  }
  attr {
    key: "channels"
    value {
      i: 3
    }
  }
  attr {
    key: "dct_method"
    value {
      s: ""
    }
  }
  attr {
    key: "fancy_upscaling"
    value {
      b: true
    }
  }
  attr {
    key: "ratio"
    value {
      i: 1
    }
  }
  attr {
    key: "try_recover_truncated"
    value {
      b: false
    }
  }
}
node {
  name: "case/cond/cond_jpeg/decode_image/cond_jpeg/DecodeJpeg/Switch"
  op: "Switch"
  input: "case/cond/cond_jpeg/decode_image/Substr/Switch"
  input: "case/cond/cond_jpeg/decode_image/cond_jpeg/pred_id"
  attr {
    key: "T"
    value {
      type: DT_STRING
    }
  }
  attr {
    key: "_class"
    value {
      list {
        s: "loc:@Reshape_2"
      }
    }
  }
  attr {
    key: "_output_shapes"
    value {
      list {
        shape {
        }
        shape {
        }
      }
    }
  }
}
node {
  name: "case/cond/cond_jpeg/decode_image/cond_jpeg/Identity"
  op: "Identity"
  input: "case/cond/cond_jpeg/decode_image/cond_jpeg/DecodeJpeg"
  attr {
    key: "T"
    value {
      type: DT_UINT8
    }
  }
  attr {
    key: "_output_shapes"
    value {
      list {
        shape {
          dim {
            size: -1
          }
          dim {
            size: -1
          }
          dim {
            size: 3
          }
        }
      }
    }
  }
}
node {
  name: "case/cond/cond_jpeg/decode_image/cond_jpeg/is_png/Substr/pos"
  op: "Const"
  input: "^case/Assert/AssertGuard/Merge"
  input: "^case/cond/cond_jpeg/decode_image/cond_jpeg/switch_f"
  attr {
    key: "_output_shapes"
    value {
      list {
        shape {
        }
      }
    }
  }
  attr {
    key: "dtype"
    value {
      type: DT_INT32
    }
  }
  attr {
    key: "value"
    value {
      tensor {
        dtype: DT_INT32
        tensor_shape {
        }
        int_val: 0
      }
    }
  }
}
node {
  name: "case/cond/cond_jpeg/decode_image/cond_jpeg/is_png/Substr/len"
  op: "Const"
  input: "^case/Assert/AssertGuard/Merge"
  input: "^case/cond/cond_jpeg/decode_image/cond_jpeg/switch_f"
  attr {
    key: "_output_shapes"
    value {
      list {
        shape {
        }
      }
    }
  }
  attr {
    key: "dtype"
    value {
      type: DT_INT32
    }
  }
  attr {
    key: "value"
    value {
      tensor {
        dtype: DT_INT32
        tensor_shape {
        }
        int_val: 3
      }
    }
  }
}
node {
  name: "case/cond/cond_jpeg/decode_image/cond_jpeg/is_png/Substr"
  op: "Substr"
  input: "case/cond/cond_jpeg/decode_image/cond_jpeg/is_png/Substr/Switch"
  input: "case/cond/cond_jpeg/decode_image/cond_jpeg/is_png/Substr/pos"
  input: "case/cond/cond_jpeg/decode_image/cond_jpeg/is_png/Substr/len"
  attr {
    key: "T"
    value {
      type: DT_INT32
    }
  }
  attr {
    key: "_output_shapes"
    value {
      list {
        shape {
        }
      }
    }
  }
  attr {
    key: "unit"
    value {
      s: "BYTE"
    }
  }
}
node {
  name: "case/cond/cond_jpeg/decode_image/cond_jpeg/is_png/Substr/Switch"
  op: "Switch"
  input: "case/cond/cond_jpeg/decode_image/Substr/Switch"
  input: "case/cond/cond_jpeg/decode_image/cond_jpeg/pred_id"
  attr {
    key: "T"
    value {
      type: DT_STRING
    }
  }
  attr {
    key: "_class"
    value {
      list {
        s: "loc:@Reshape_2"
      }
    }
  }
  attr {
    key: "_output_shapes"
    value {
      list {
        shape {
        }
        shape {
        }
      }
    }
  }
}
node {
  name: "case/cond/cond_jpeg/decode_image/cond_jpeg/is_png/Equal/y"
  op: "Const"
  input: "^case/Assert/AssertGuard/Merge"
  input: "^case/cond/cond_jpeg/decode_image/cond_jpeg/switch_f"
  attr {
    key: "_output_shapes"
    value {
      list {
        shape {
        }
      }
    }
  }
  attr {
    key: "dtype"
    value {
      type: DT_STRING
    }
  }
  attr {
    key: "value"
    value {
      tensor {
        dtype: DT_STRING
        tensor_shape {
        }
        string_val: "\211PN"
      }
    }
  }
}
node {
  name: "case/cond/cond_jpeg/decode_image/cond_jpeg/is_png/Equal"
  op: "Equal"
  input: "case/cond/cond_jpeg/decode_image/cond_jpeg/is_png/Substr"
  input: "case/cond/cond_jpeg/decode_image/cond_jpeg/is_png/Equal/y"
  attr {
    key: "T"
    value {
      type: DT_STRING
    }
  }
  attr {
    key: "_output_shapes"
    value {
      list {
        shape {
        }
      }
    }
  }
  attr {
    key: "incompatible_shape_error"
    value {
      b: true
    }
  }
}
node {
  name: "case/cond/cond_jpeg/decode_image/cond_jpeg/cond_png/Switch"
  op: "Switch"
  input: "case/cond/cond_jpeg/decode_image/cond_jpeg/is_png/Equal"
  input: "case/cond/cond_jpeg/decode_image/cond_jpeg/is_png/Equal"
  attr {
    key: "T"
    value {
      type: DT_BOOL
    }
  }
  attr {
    key: "_output_shapes"
    value {
      list {
        shape {
        }
        shape {
        }
      }
    }
  }
}
node {
  name: "case/cond/cond_jpeg/decode_image/cond_jpeg/cond_png/switch_t"
  op: "Identity"
  input: "case/cond/cond_jpeg/decode_image/cond_jpeg/cond_png/Switch:1"
  attr {
    key: "T"
    value {
      type: DT_BOOL
    }
  }
  attr {
    key: "_output_shapes"
    value {
      list {
        shape {
        }
      }
    }
  }
}
node {
  name: "case/cond/cond_jpeg/decode_image/cond_jpeg/cond_png/switch_f"
  op: "Identity"
  input: "case/cond/cond_jpeg/decode_image/cond_jpeg/cond_png/Switch"
  attr {
    key: "T"
    value {
      type: DT_BOOL
    }
  }
  attr {
    key: "_output_shapes"
    value {
      list {
        shape {
        }
      }
    }
  }
}
node {
  name: "case/cond/cond_jpeg/decode_image/cond_jpeg/cond_png/pred_id"
  op: "Identity"
  input: "case/cond/cond_jpeg/decode_image/cond_jpeg/is_png/Equal"
  attr {
    key: "T"
    value {
      type: DT_BOOL
    }
  }
  attr {
    key: "_output_shapes"
    value {
      list {
        shape {
        }
      }
    }
  }
}
node {
  name: "case/cond/cond_jpeg/decode_image/cond_jpeg/cond_png/DecodePng"
  op: "DecodePng"
  input: "case/cond/cond_jpeg/decode_image/cond_jpeg/cond_png/DecodePng/Switch:1"
  input: "^case/Assert/AssertGuard/Merge"
  attr {
    key: "_output_shapes"
    value {
      list {
        shape {
          dim {
            size: -1
          }
          dim {
            size: -1
          }
          dim {
            size: 3
          }
        }
      }
    }
  }
  attr {
    key: "channels"
    value {
      i: 3
    }
  }
  attr {
    key: "dtype"
    value {
      type: DT_UINT8
    }
  }
}
node {
  name: "case/cond/cond_jpeg/decode_image/cond_jpeg/cond_png/DecodePng/Switch"
  op: "Switch"
  input: "case/cond/cond_jpeg/decode_image/cond_jpeg/is_png/Substr/Switch"
  input: "case/cond/cond_jpeg/decode_image/cond_jpeg/cond_png/pred_id"
  attr {
    key: "T"
    value {
      type: DT_STRING
    }
  }
  attr {
    key: "_class"
    value {
      list {
        s: "loc:@Reshape_2"
      }
    }
  }
  attr {
    key: "_output_shapes"
    value {
      list {
        shape {
        }
        shape {
        }
      }
    }
  }
}
node {
  name: "case/cond/cond_jpeg/decode_image/cond_jpeg/cond_png/Identity"
  op: "Identity"
  input: "case/cond/cond_jpeg/decode_image/cond_jpeg/cond_png/DecodePng"
  attr {
    key: "T"
    value {
      type: DT_UINT8
    }
  }
  attr {
    key: "_output_shapes"
    value {
      list {
        shape {
          dim {
            size: -1
          }
          dim {
            size: -1
          }
          dim {
            size: 3
          }
        }
      }
    }
  }
}
node {
  name: "case/cond/cond_jpeg/decode_image/cond_jpeg/cond_png/is_gif/y"
  op: "Const"
  input: "^case/Assert/AssertGuard/Merge"
  input: "^case/cond/cond_jpeg/decode_image/cond_jpeg/cond_png/switch_f"
  attr {
    key: "_output_shapes"
    value {
      list {
        shape {
        }
      }
    }
  }
  attr {
    key: "dtype"
    value {
      type: DT_STRING
    }
  }
  attr {
    key: "value"
    value {
      tensor {
        dtype: DT_STRING
        tensor_shape {
        }
        string_val: "GIF"
      }
    }
  }
}
node {
  name: "case/cond/cond_jpeg/decode_image/cond_jpeg/cond_png/is_gif"
  op: "Equal"
  input: "case/cond/cond_jpeg/decode_image/cond_jpeg/cond_png/is_gif/Switch_1"
  input: "case/cond/cond_jpeg/decode_image/cond_jpeg/cond_png/is_gif/y"
  attr {
    key: "T"
    value {
      type: DT_STRING
    }
  }
  attr {
    key: "_output_shapes"
    value {
      list {
        shape {
        }
      }
    }
  }
  attr {
    key: "incompatible_shape_error"
    value {
      b: true
    }
  }
}
node {
  name: "case/cond/cond_jpeg/decode_image/cond_jpeg/cond_png/is_gif/Switch"
  op: "Switch"
  input: "case/cond/cond_jpeg/decode_image/Substr"
  input: "case/cond/cond_jpeg/decode_image/cond_jpeg/pred_id"
  attr {
    key: "T"
    value {
      type: DT_STRING
    }
  }
  attr {
    key: "_class"
    value {
      list {
        s: "loc:@case/cond/cond_jpeg/decode_image/Substr"
      }
    }
  }
  attr {
    key: "_output_shapes"
    value {
      list {
        shape {
        }
        shape {
        }
      }
    }
  }
}
node {
  name: "case/cond/cond_jpeg/decode_image/cond_jpeg/cond_png/is_gif/Switch_1"
  op: "Switch"
  input: "case/cond/cond_jpeg/decode_image/cond_jpeg/cond_png/is_gif/Switch"
  input: "case/cond/cond_jpeg/decode_image/cond_jpeg/cond_png/pred_id"
  attr {
    key: "T"
    value {
      type: DT_STRING
    }
  }
  attr {
    key: "_class"
    value {
      list {
        s: "loc:@case/cond/cond_jpeg/decode_image/Substr"
      }
    }
  }
  attr {
    key: "_output_shapes"
    value {
      list {
        shape {
        }
        shape {
        }
      }
    }
  }
}
node {
  name: "case/cond/cond_jpeg/decode_image/cond_jpeg/cond_png/cond_gif/Switch"
  op: "Switch"
  input: "case/cond/cond_jpeg/decode_image/cond_jpeg/cond_png/is_gif"
  input: "case/cond/cond_jpeg/decode_image/cond_jpeg/cond_png/is_gif"
  attr {
    key: "T"
    value {
      type: DT_BOOL
    }
  }
  attr {
    key: "_output_shapes"
    value {
      list {
        shape {
        }
        shape {
        }
      }
    }
  }
}
node {
  name: "case/cond/cond_jpeg/decode_image/cond_jpeg/cond_png/cond_gif/switch_t"
  op: "Identity"
  input: "case/cond/cond_jpeg/decode_image/cond_jpeg/cond_png/cond_gif/Switch:1"
  attr {
    key: "T"
    value {
      type: DT_BOOL
    }
  }
  attr {
    key: "_output_shapes"
    value {
      list {
        shape {
        }
      }
    }
  }
}
node {
  name: "case/cond/cond_jpeg/decode_image/cond_jpeg/cond_png/cond_gif/switch_f"
  op: "Identity"
  input: "case/cond/cond_jpeg/decode_image/cond_jpeg/cond_png/cond_gif/Switch"
  attr {
    key: "T"
    value {
      type: DT_BOOL
    }
  }
  attr {
    key: "_output_shapes"
    value {
      list {
        shape {
        }
      }
    }
  }
}
node {
  name: "case/cond/cond_jpeg/decode_image/cond_jpeg/cond_png/cond_gif/pred_id"
  op: "Identity"
  input: "case/cond/cond_jpeg/decode_image/cond_jpeg/cond_png/is_gif"
  attr {
    key: "T"
    value {
      type: DT_BOOL
    }
  }
  attr {
    key: "_output_shapes"
    value {
      list {
        shape {
        }
      }
    }
  }
}
node {
  name: "case/cond/cond_jpeg/decode_image/cond_jpeg/cond_png/cond_gif/check_gif_channels/x"
  op: "Const"
  input: "^case/Assert/AssertGuard/Merge"
  input: "^case/cond/cond_jpeg/decode_image/cond_jpeg/cond_png/cond_gif/switch_t"
  attr {
    key: "_output_shapes"
    value {
      list {
        shape {
        }
      }
    }
  }
  attr {
    key: "dtype"
    value {
      type: DT_INT32
    }
  }
  attr {
    key: "value"
    value {
      tensor {
        dtype: DT_INT32
        tensor_shape {
        }
        int_val: 3
      }
    }
  }
}
node {
  name: "case/cond/cond_jpeg/decode_image/cond_jpeg/cond_png/cond_gif/check_gif_channels/y"
  op: "Const"
  input: "^case/Assert/AssertGuard/Merge"
  input: "^case/cond/cond_jpeg/decode_image/cond_jpeg/cond_png/cond_gif/switch_t"
  attr {
    key: "_output_shapes"
    value {
      list {
        shape {
        }
      }
    }
  }
  attr {
    key: "dtype"
    value {
      type: DT_INT32
    }
  }
  attr {
    key: "value"
    value {
      tensor {
        dtype: DT_INT32
        tensor_shape {
        }
        int_val: 1
      }
    }
  }
}
node {
  name: "case/cond/cond_jpeg/decode_image/cond_jpeg/cond_png/cond_gif/check_gif_channels"
  op: "NotEqual"
  input: "case/cond/cond_jpeg/decode_image/cond_jpeg/cond_png/cond_gif/check_gif_channels/x"
  input: "case/cond/cond_jpeg/decode_image/cond_jpeg/cond_png/cond_gif/check_gif_channels/y"
  attr {
    key: "T"
    value {
      type: DT_INT32
    }
  }
  attr {
    key: "_output_shapes"
    value {
      list {
        shape {
        }
      }
    }
  }
  attr {
    key: "incompatible_shape_error"
    value {
      b: true
    }
  }
}
node {
  name: "case/cond/cond_jpeg/decode_image/cond_jpeg/cond_png/cond_gif/check_gif_channels_1/x"
  op: "Const"
  input: "^case/Assert/AssertGuard/Merge"
  input: "^case/cond/cond_jpeg/decode_image/cond_jpeg/cond_png/cond_gif/switch_t"
  attr {
    key: "_output_shapes"
    value {
      list {
        shape {
        }
      }
    }
  }
  attr {
    key: "dtype"
    value {
      type: DT_INT32
    }
  }
  attr {
    key: "value"
    value {
      tensor {
        dtype: DT_INT32
        tensor_shape {
        }
        int_val: 3
      }
    }
  }
}
node {
  name: "case/cond/cond_jpeg/decode_image/cond_jpeg/cond_png/cond_gif/check_gif_channels_1/y"
  op: "Const"
  input: "^case/Assert/AssertGuard/Merge"
  input: "^case/cond/cond_jpeg/decode_image/cond_jpeg/cond_png/cond_gif/switch_t"
  attr {
    key: "_output_shapes"
    value {
      list {
        shape {
        }
      }
    }
  }
  attr {
    key: "dtype"
    value {
      type: DT_INT32
    }
  }
  attr {
    key: "value"
    value {
      tensor {
        dtype: DT_INT32
        tensor_shape {
        }
        int_val: 4
      }
    }
  }
}
node {
  name: "case/cond/cond_jpeg/decode_image/cond_jpeg/cond_png/cond_gif/check_gif_channels_1"
  op: "NotEqual"
  input: "case/cond/cond_jpeg/decode_image/cond_jpeg/cond_png/cond_gif/check_gif_channels_1/x"
  input: "case/cond/cond_jpeg/decode_image/cond_jpeg/cond_png/cond_gif/check_gif_channels_1/y"
  attr {
    key: "T"
    value {
      type: DT_INT32
    }
  }
  attr {
    key: "_output_shapes"
    value {
      list {
        shape {
        }
      }
    }
  }
  attr {
    key: "incompatible_shape_error"
    value {
      b: true
    }
  }
}
node {
  name: "case/cond/cond_jpeg/decode_image/cond_jpeg/cond_png/cond_gif/LogicalAnd"
  op: "LogicalAnd"
  input: "case/cond/cond_jpeg/decode_image/cond_jpeg/cond_png/cond_gif/check_gif_channels"
  input: "case/cond/cond_jpeg/decode_image/cond_jpeg/cond_png/cond_gif/check_gif_channels_1"
  attr {
    key: "_output_shapes"
    value {
      list {
        shape {
        }
      }
    }
  }
}
node {
  name: "case/cond/cond_jpeg/decode_image/cond_jpeg/cond_png/cond_gif/Assert/Const"
  op: "Const"
  input: "^case/Assert/AssertGuard/Merge"
  input: "^case/cond/cond_jpeg/decode_image/cond_jpeg/cond_png/cond_gif/switch_t"
  attr {
    key: "_output_shapes"
    value {
      list {
        shape {
        }
      }
    }
  }
  attr {
    key: "dtype"
    value {
      type: DT_STRING
    }
  }
  attr {
    key: "value"
    value {
      tensor {
        dtype: DT_STRING
        tensor_shape {
        }
        string_val: "Channels must be in (None, 0, 3) when decoding GIF images"
      }
    }
  }
}
node {
  name: "case/cond/cond_jpeg/decode_image/cond_jpeg/cond_png/cond_gif/Assert/Assert/data_0"
  op: "Const"
  input: "^case/Assert/AssertGuard/Merge"
  input: "^case/cond/cond_jpeg/decode_image/cond_jpeg/cond_png/cond_gif/switch_t"
  attr {
    key: "_output_shapes"
    value {
      list {
        shape {
        }
      }
    }
  }
  attr {
    key: "dtype"
    value {
      type: DT_STRING
    }
  }
  attr {
    key: "value"
    value {
      tensor {
        dtype: DT_STRING
        tensor_shape {
        }
        string_val: "Channels must be in (None, 0, 3) when decoding GIF images"
      }
    }
  }
}
node {
  name: "case/cond/cond_jpeg/decode_image/cond_jpeg/cond_png/cond_gif/Assert/Assert"
  op: "Assert"
  input: "case/cond/cond_jpeg/decode_image/cond_jpeg/cond_png/cond_gif/LogicalAnd"
  input: "case/cond/cond_jpeg/decode_image/cond_jpeg/cond_png/cond_gif/Assert/Assert/data_0"
  attr {
    key: "T"
    value {
      list {
        type: DT_STRING
      }
    }
  }
  attr {
    key: "summarize"
    value {
      i: 3
    }
  }
}
node {
  name: "case/cond/cond_jpeg/decode_image/cond_jpeg/cond_png/cond_gif/DecodeGif"
  op: "DecodeGif"
  input: "case/cond/cond_jpeg/decode_image/cond_jpeg/cond_png/cond_gif/DecodeGif/Switch_1:1"
  input: "^case/Assert/AssertGuard/Merge"
  input: "^case/cond/cond_jpeg/decode_image/cond_jpeg/cond_png/cond_gif/Assert/Assert"
  attr {
    key: "_output_shapes"
    value {
      list {
        shape {
          dim {
            size: -1
          }
          dim {
            size: -1
          }
          dim {
            size: -1
          }
          dim {
            size: 3
          }
        }
      }
    }
  }
}
node {
  name: "case/cond/cond_jpeg/decode_image/cond_jpeg/cond_png/cond_gif/DecodeGif/Switch"
  op: "Switch"
  input: "case/cond/cond_jpeg/decode_image/cond_jpeg/is_png/Substr/Switch"
  input: "case/cond/cond_jpeg/decode_image/cond_jpeg/cond_png/pred_id"
  attr {
    key: "T"
    value {
      type: DT_STRING
    }
  }
  attr {
    key: "_class"
    value {
      list {
        s: "loc:@Reshape_2"
      }
    }
  }
  attr {
    key: "_output_shapes"
    value {
      list {
        shape {
        }
        shape {
        }
      }
    }
  }
}
node {
  name: "case/cond/cond_jpeg/decode_image/cond_jpeg/cond_png/cond_gif/DecodeGif/Switch_1"
  op: "Switch"
  input: "case/cond/cond_jpeg/decode_image/cond_jpeg/cond_png/cond_gif/DecodeGif/Switch"
  input: "case/cond/cond_jpeg/decode_image/cond_jpeg/cond_png/cond_gif/pred_id"
  attr {
    key: "T"
    value {
      type: DT_STRING
    }
  }
  attr {
    key: "_class"
    value {
      list {
        s: "loc:@Reshape_2"
      }
    }
  }
  attr {
    key: "_output_shapes"
    value {
      list {
        shape {
        }
        shape {
        }
      }
    }
  }
}
node {
  name: "case/cond/cond_jpeg/decode_image/cond_jpeg/cond_png/cond_gif/Identity"
  op: "Identity"
  input: "case/cond/cond_jpeg/decode_image/cond_jpeg/cond_png/cond_gif/DecodeGif"
  attr {
    key: "T"
    value {
      type: DT_UINT8
    }
  }
  attr {
    key: "_output_shapes"
    value {
      list {
        shape {
          dim {
            size: -1
          }
          dim {
            size: -1
          }
          dim {
            size: -1
          }
          dim {
            size: 3
          }
        }
      }
    }
  }
}
node {
  name: "case/cond/cond_jpeg/decode_image/cond_jpeg/cond_png/cond_gif/Substr/pos"
  op: "Const"
  input: "^case/Assert/AssertGuard/Merge"
  input: "^case/cond/cond_jpeg/decode_image/cond_jpeg/cond_png/cond_gif/switch_f"
  attr {
    key: "_output_shapes"
    value {
      list {
        shape {
        }
      }
    }
  }
  attr {
    key: "dtype"
    value {
      type: DT_INT32
    }
  }
  attr {
    key: "value"
    value {
      tensor {
        dtype: DT_INT32
        tensor_shape {
        }
        int_val: 0
      }
    }
  }
}
node {
  name: "case/cond/cond_jpeg/decode_image/cond_jpeg/cond_png/cond_gif/Substr/len"
  op: "Const"
  input: "^case/Assert/AssertGuard/Merge"
  input: "^case/cond/cond_jpeg/decode_image/cond_jpeg/cond_png/cond_gif/switch_f"
  attr {
    key: "_output_shapes"
    value {
      list {
        shape {
        }
      }
    }
  }
  attr {
    key: "dtype"
    value {
      type: DT_INT32
    }
  }
  attr {
    key: "value"
    value {
      tensor {
        dtype: DT_INT32
        tensor_shape {
        }
        int_val: 2
      }
    }
  }
}
node {
  name: "case/cond/cond_jpeg/decode_image/cond_jpeg/cond_png/cond_gif/Substr"
  op: "Substr"
  input: "case/cond/cond_jpeg/decode_image/cond_jpeg/cond_png/cond_gif/Substr/Switch"
  input: "case/cond/cond_jpeg/decode_image/cond_jpeg/cond_png/cond_gif/Substr/pos"
  input: "case/cond/cond_jpeg/decode_image/cond_jpeg/cond_png/cond_gif/Substr/len"
  attr {
    key: "T"
    value {
      type: DT_INT32
    }
  }
  attr {
    key: "_output_shapes"
    value {
      list {
        shape {
        }
      }
    }
  }
  attr {
    key: "unit"
    value {
      s: "BYTE"
    }
  }
}
node {
  name: "case/cond/cond_jpeg/decode_image/cond_jpeg/cond_png/cond_gif/Substr/Switch"
  op: "Switch"
  input: "case/cond/cond_jpeg/decode_image/cond_jpeg/cond_png/cond_gif/DecodeGif/Switch"
  input: "case/cond/cond_jpeg/decode_image/cond_jpeg/cond_png/cond_gif/pred_id"
  attr {
    key: "T"
    value {
      type: DT_STRING
    }
  }
  attr {
    key: "_class"
    value {
      list {
        s: "loc:@Reshape_2"
      }
    }
  }
  attr {
    key: "_output_shapes"
    value {
      list {
        shape {
        }
        shape {
        }
      }
    }
  }
}
node {
  name: "case/cond/cond_jpeg/decode_image/cond_jpeg/cond_png/cond_gif/is_bmp/y"
  op: "Const"
  input: "^case/Assert/AssertGuard/Merge"
  input: "^case/cond/cond_jpeg/decode_image/cond_jpeg/cond_png/cond_gif/switch_f"
  attr {
    key: "_output_shapes"
    value {
      list {
        shape {
        }
      }
    }
  }
  attr {
    key: "dtype"
    value {
      type: DT_STRING
    }
  }
  attr {
    key: "value"
    value {
      tensor {
        dtype: DT_STRING
        tensor_shape {
        }
        string_val: "BM"
      }
    }
  }
}
node {
  name: "case/cond/cond_jpeg/decode_image/cond_jpeg/cond_png/cond_gif/is_bmp"
  op: "Equal"
  input: "case/cond/cond_jpeg/decode_image/cond_jpeg/cond_png/cond_gif/Substr"
  input: "case/cond/cond_jpeg/decode_image/cond_jpeg/cond_png/cond_gif/is_bmp/y"
  attr {
    key: "T"
    value {
      type: DT_STRING
    }
  }
  attr {
    key: "_output_shapes"
    value {
      list {
        shape {
        }
      }
    }
  }
  attr {
    key: "incompatible_shape_error"
    value {
      b: true
    }
  }
}
node {
  name: "case/cond/cond_jpeg/decode_image/cond_jpeg/cond_png/cond_gif/Assert_1/Const"
  op: "Const"
  input: "^case/Assert/AssertGuard/Merge"
  input: "^case/cond/cond_jpeg/decode_image/cond_jpeg/cond_png/cond_gif/switch_f"
  attr {
    key: "_output_shapes"
    value {
      list {
        shape {
        }
      }
    }
  }
  attr {
    key: "dtype"
    value {
      type: DT_STRING
    }
  }
  attr {
    key: "value"
    value {
      tensor {
        dtype: DT_STRING
        tensor_shape {
        }
        string_val: "Unable to decode bytes as JPEG, PNG, GIF, or BMP"
      }
    }
  }
}
node {
  name: "case/cond/cond_jpeg/decode_image/cond_jpeg/cond_png/cond_gif/Assert_1/Assert/data_0"
  op: "Const"
  input: "^case/Assert/AssertGuard/Merge"
  input: "^case/cond/cond_jpeg/decode_image/cond_jpeg/cond_png/cond_gif/switch_f"
  attr {
    key: "_output_shapes"
    value {
      list {
        shape {
        }
      }
    }
  }
  attr {
    key: "dtype"
    value {
      type: DT_STRING
    }
  }
  attr {
    key: "value"
    value {
      tensor {
        dtype: DT_STRING
        tensor_shape {
        }
        string_val: "Unable to decode bytes as JPEG, PNG, GIF, or BMP"
      }
    }
  }
}
node {
  name: "case/cond/cond_jpeg/decode_image/cond_jpeg/cond_png/cond_gif/Assert_1/Assert"
  op: "Assert"
  input: "case/cond/cond_jpeg/decode_image/cond_jpeg/cond_png/cond_gif/is_bmp"
  input: "case/cond/cond_jpeg/decode_image/cond_jpeg/cond_png/cond_gif/Assert_1/Assert/data_0"
  attr {
    key: "T"
    value {
      list {
        type: DT_STRING
      }
    }
  }
  attr {
    key: "summarize"
    value {
      i: 3
    }
  }
}
node {
  name: "case/cond/cond_jpeg/decode_image/cond_jpeg/cond_png/cond_gif/check_channels/x"
  op: "Const"
  input: "^case/Assert/AssertGuard/Merge"
  input: "^case/cond/cond_jpeg/decode_image/cond_jpeg/cond_png/cond_gif/switch_f"
  attr {
    key: "_output_shapes"
    value {
      list {
        shape {
        }
      }
    }
  }
  attr {
    key: "dtype"
    value {
      type: DT_INT32
    }
  }
  attr {
    key: "value"
    value {
      tensor {
        dtype: DT_INT32
        tensor_shape {
        }
        int_val: 3
      }
    }
  }
}
node {
  name: "case/cond/cond_jpeg/decode_image/cond_jpeg/cond_png/cond_gif/check_channels/y"
  op: "Const"
  input: "^case/Assert/AssertGuard/Merge"
  input: "^case/cond/cond_jpeg/decode_image/cond_jpeg/cond_png/cond_gif/switch_f"
  attr {
    key: "_output_shapes"
    value {
      list {
        shape {
        }
      }
    }
  }
  attr {
    key: "dtype"
    value {
      type: DT_INT32
    }
  }
  attr {
    key: "value"
    value {
      tensor {
        dtype: DT_INT32
        tensor_shape {
        }
        int_val: 1
      }
    }
  }
}
node {
  name: "case/cond/cond_jpeg/decode_image/cond_jpeg/cond_png/cond_gif/check_channels"
  op: "NotEqual"
  input: "case/cond/cond_jpeg/decode_image/cond_jpeg/cond_png/cond_gif/check_channels/x"
  input: "case/cond/cond_jpeg/decode_image/cond_jpeg/cond_png/cond_gif/check_channels/y"
  attr {
    key: "T"
    value {
      type: DT_INT32
    }
  }
  attr {
    key: "_output_shapes"
    value {
      list {
        shape {
        }
      }
    }
  }
  attr {
    key: "incompatible_shape_error"
    value {
      b: true
    }
  }
}
node {
  name: "case/cond/cond_jpeg/decode_image/cond_jpeg/cond_png/cond_gif/Assert_2/Const"
  op: "Const"
  input: "^case/Assert/AssertGuard/Merge"
  input: "^case/cond/cond_jpeg/decode_image/cond_jpeg/cond_png/cond_gif/switch_f"
  attr {
    key: "_output_shapes"
    value {
      list {
        shape {
        }
      }
    }
  }
  attr {
    key: "dtype"
    value {
      type: DT_STRING
    }
  }
  attr {
    key: "value"
    value {
      tensor {
        dtype: DT_STRING
        tensor_shape {
        }
        string_val: "Channels must be in (None, 0, 3) when decoding BMP images"
      }
    }
  }
}
node {
  name: "case/cond/cond_jpeg/decode_image/cond_jpeg/cond_png/cond_gif/Assert_2/Assert/data_0"
  op: "Const"
  input: "^case/Assert/AssertGuard/Merge"
  input: "^case/cond/cond_jpeg/decode_image/cond_jpeg/cond_png/cond_gif/switch_f"
  attr {
    key: "_output_shapes"
    value {
      list {
        shape {
        }
      }
    }
  }
  attr {
    key: "dtype"
    value {
      type: DT_STRING
    }
  }
  attr {
    key: "value"
    value {
      tensor {
        dtype: DT_STRING
        tensor_shape {
        }
        string_val: "Channels must be in (None, 0, 3) when decoding BMP images"
      }
    }
  }
}
node {
  name: "case/cond/cond_jpeg/decode_image/cond_jpeg/cond_png/cond_gif/Assert_2/Assert"
  op: "Assert"
  input: "case/cond/cond_jpeg/decode_image/cond_jpeg/cond_png/cond_gif/check_channels"
  input: "case/cond/cond_jpeg/decode_image/cond_jpeg/cond_png/cond_gif/Assert_2/Assert/data_0"
  attr {
    key: "T"
    value {
      list {
        type: DT_STRING
      }
    }
  }
  attr {
    key: "summarize"
    value {
      i: 3
    }
  }
}
node {
  name: "case/cond/cond_jpeg/decode_image/cond_jpeg/cond_png/cond_gif/DecodeBmp"
  op: "DecodeBmp"
  input: "case/cond/cond_jpeg/decode_image/cond_jpeg/cond_png/cond_gif/Substr/Switch"
  input: "^case/Assert/AssertGuard/Merge"
  input: "^case/cond/cond_jpeg/decode_image/cond_jpeg/cond_png/cond_gif/Assert_1/Assert"
  input: "^case/cond/cond_jpeg/decode_image/cond_jpeg/cond_png/cond_gif/Assert_2/Assert"
  attr {
    key: "_output_shapes"
    value {
      list {
        shape {
          dim {
            size: -1
          }
          dim {
            size: -1
          }
          dim {
            size: -1
          }
        }
      }
    }
  }
  attr {
    key: "channels"
    value {
      i: 0
    }
  }
}
node {
  name: "case/cond/cond_jpeg/decode_image/cond_jpeg/cond_png/cond_gif/Identity_1"
  op: "Identity"
  input: "case/cond/cond_jpeg/decode_image/cond_jpeg/cond_png/cond_gif/DecodeBmp"
  attr {
    key: "T"
    value {
      type: DT_UINT8
    }
  }
  attr {
    key: "_output_shapes"
    value {
      list {
        shape {
          dim {
            size: -1
          }
          dim {
            size: -1
          }
          dim {
            size: -1
          }
        }
      }
    }
  }
}
node {
  name: "case/cond/cond_jpeg/decode_image/cond_jpeg/cond_png/cond_gif/Merge"
  op: "Merge"
  input: "case/cond/cond_jpeg/decode_image/cond_jpeg/cond_png/cond_gif/Identity_1"
  input: "case/cond/cond_jpeg/decode_image/cond_jpeg/cond_png/cond_gif/Identity"
  attr {
    key: "N"
    value {
      i: 2
    }
  }
  attr {
    key: "T"
    value {
      type: DT_UINT8
    }
  }
  attr {
    key: "_output_shapes"
    value {
      list {
        shape {
          unknown_rank: true
        }
        shape {
        }
      }
    }
  }
}
node {
  name: "case/cond/cond_jpeg/decode_image/cond_jpeg/cond_png/Merge"
  op: "Merge"
  input: "case/cond/cond_jpeg/decode_image/cond_jpeg/cond_png/cond_gif/Merge"
  input: "case/cond/cond_jpeg/decode_image/cond_jpeg/cond_png/Identity"
  attr {
    key: "N"
    value {
      i: 2
    }
  }
  attr {
    key: "T"
    value {
      type: DT_UINT8
    }
  }
  attr {
    key: "_output_shapes"
    value {
      list {
        shape {
          unknown_rank: true
        }
        shape {
        }
      }
    }
  }
}
node {
  name: "case/cond/cond_jpeg/decode_image/cond_jpeg/Merge"
  op: "Merge"
  input: "case/cond/cond_jpeg/decode_image/cond_jpeg/cond_png/Merge"
  input: "case/cond/cond_jpeg/decode_image/cond_jpeg/Identity"
  attr {
    key: "N"
    value {
      i: 2
    }
  }
  attr {
    key: "T"
    value {
      type: DT_UINT8
    }
  }
  attr {
    key: "_output_shapes"
    value {
      list {
        shape {
          unknown_rank: true
        }
        shape {
        }
      }
    }
  }
}
node {
  name: "case/cond/cond_jpeg/Merge"
  op: "Merge"
  input: "case/cond/cond_jpeg/decode_image/cond_jpeg/Merge"
  input: "case/cond/cond_jpeg/DecodeJpeg"
  attr {
    key: "N"
    value {
      i: 2
    }
  }
  attr {
    key: "T"
    value {
      type: DT_UINT8
    }
  }
  attr {
    key: "_output_shapes"
    value {
      list {
        shape {
          unknown_rank: true
        }
        shape {
        }
      }
    }
  }
}
node {
  name: "case/cond/Merge"
  op: "Merge"
  input: "case/cond/cond_jpeg/Merge"
  input: "case/cond/DecodeRaw"
  attr {
    key: "N"
    value {
      i: 2
    }
  }
  attr {
    key: "T"
    value {
      type: DT_UINT8
    }
  }
  attr {
    key: "_output_shapes"
    value {
      list {
        shape {
          dim {
            size: -1
          }
          dim {
            size: -1
          }
          dim {
            size: 3
          }
        }
        shape {
        }
      }
    }
  }
}
node {
  name: "ExpandDims/dim"
  op: "Const"
  attr {
    key: "_output_shapes"
    value {
      list {
        shape {
        }
      }
    }
  }
  attr {
    key: "dtype"
    value {
      type: DT_INT32
    }
  }
  attr {
    key: "value"
    value {
      tensor {
        dtype: DT_INT32
        tensor_shape {
        }
        int_val: 0
      }
    }
  }
}
node {
  name: "ExpandDims"
  op: "ExpandDims"
  input: "ParseSingleExample/ParseSingleExample:8"
  input: "ExpandDims/dim"
  attr {
    key: "T"
    value {
      type: DT_FLOAT
    }
  }
  attr {
    key: "Tdim"
    value {
      type: DT_INT32
    }
  }
  attr {
    key: "_output_shapes"
    value {
      list {
        shape {
          dim {
            size: 1
          }
          dim {
            size: -1
          }
        }
      }
    }
  }
}
node {
  name: "ExpandDims_1/dim"
  op: "Const"
  attr {
    key: "_output_shapes"
    value {
      list {
        shape {
        }
      }
    }
  }
  attr {
    key: "dtype"
    value {
      type: DT_INT32
    }
  }
  attr {
    key: "value"
    value {
      tensor {
        dtype: DT_INT32
        tensor_shape {
        }
        int_val: 0
      }
    }
  }
}
node {
  name: "ExpandDims_1"
  op: "ExpandDims"
  input: "ParseSingleExample/ParseSingleExample:6"
  input: "ExpandDims_1/dim"
  attr {
    key: "T"
    value {
      type: DT_FLOAT
    }
  }
  attr {
    key: "Tdim"
    value {
      type: DT_INT32
    }
  }
  attr {
    key: "_output_shapes"
    value {
      list {
        shape {
          dim {
            size: 1
          }
          dim {
            size: -1
          }
        }
      }
    }
  }
}
node {
  name: "ExpandDims_2/dim"
  op: "Const"
  attr {
    key: "_output_shapes"
    value {
      list {
        shape {
        }
      }
    }
  }
  attr {
    key: "dtype"
    value {
      type: DT_INT32
    }
  }
  attr {
    key: "value"
    value {
      tensor {
        dtype: DT_INT32
        tensor_shape {
        }
        int_val: 0
      }
    }
  }
}
node {
  name: "ExpandDims_2"
  op: "ExpandDims"
  input: "ParseSingleExample/ParseSingleExample:7"
  input: "ExpandDims_2/dim"
  attr {
    key: "T"
    value {
      type: DT_FLOAT
    }
  }
  attr {
    key: "Tdim"
    value {
      type: DT_INT32
    }
  }
  attr {
    key: "_output_shapes"
    value {
      list {
        shape {
          dim {
            size: 1
          }
          dim {
            size: -1
          }
        }
      }
    }
  }
}
node {
  name: "ExpandDims_3/dim"
  op: "Const"
  attr {
    key: "_output_shapes"
    value {
      list {
        shape {
        }
      }
    }
  }
  attr {
    key: "dtype"
    value {
      type: DT_INT32
    }
  }
  attr {
    key: "value"
    value {
      tensor {
        dtype: DT_INT32
        tensor_shape {
        }
        int_val: 0
      }
    }
  }
}
node {
  name: "ExpandDims_3"
  op: "ExpandDims"
  input: "ParseSingleExample/ParseSingleExample:5"
  input: "ExpandDims_3/dim"
  attr {
    key: "T"
    value {
      type: DT_FLOAT
    }
  }
  attr {
    key: "Tdim"
    value {
      type: DT_INT32
    }
  }
  attr {
    key: "_output_shapes"
    value {
      list {
        shape {
          dim {
            size: 1
          }
          dim {
            size: -1
          }
        }
      }
    }
  }
}
node {
  name: "concat/axis"
  op: "Const"
  attr {
    key: "_output_shapes"
    value {
      list {
        shape {
        }
      }
    }
  }
  attr {
    key: "dtype"
    value {
      type: DT_INT32
    }
  }
  attr {
    key: "value"
    value {
      tensor {
        dtype: DT_INT32
        tensor_shape {
        }
        int_val: 0
      }
    }
  }
}
node {
  name: "concat"
  op: "ConcatV2"
  input: "ExpandDims"
  input: "ExpandDims_1"
  input: "ExpandDims_2"
  input: "ExpandDims_3"
  input: "concat/axis"
  attr {
    key: "N"
    value {
      i: 4
    }
  }
  attr {
    key: "T"
    value {
      type: DT_FLOAT
    }
  }
  attr {
    key: "Tidx"
    value {
      type: DT_INT32
    }
  }
  attr {
    key: "_output_shapes"
    value {
      list {
        shape {
          dim {
            size: 4
          }
          dim {
            size: -1
          }
        }
      }
    }
  }
}
node {
  name: "transpose/perm"
  op: "Const"
  attr {
    key: "_output_shapes"
    value {
      list {
        shape {
          dim {
            size: 2
          }
        }
      }
    }
  }
  attr {
    key: "dtype"
    value {
      type: DT_INT32
    }
  }
  attr {
    key: "value"
    value {
      tensor {
        dtype: DT_INT32
        tensor_shape {
          dim {
            size: 2
          }
        }
        tensor_content: "\001\000\000\000\000\000\000\000"
      }
    }
  }
}
node {
  name: "transpose"
  op: "Transpose"
  input: "concat"
  input: "transpose/perm"
  attr {
    key: "T"
    value {
      type: DT_FLOAT
    }
  }
  attr {
    key: "Tperm"
    value {
      type: DT_INT32
    }
  }
  attr {
    key: "_output_shapes"
    value {
      list {
        shape {
          dim {
            size: -1
          }
          dim {
            size: 4
          }
        }
      }
    }
  }
}
node {
  name: "SparseToDense/default_value"
  op: "Const"
  attr {
    key: "_output_shapes"
    value {
      list {
        shape {
        }
      }
    }
  }
  attr {
    key: "dtype"
    value {
      type: DT_INT64
    }
  }
  attr {
    key: "value"
    value {
      tensor {
        dtype: DT_INT64
        tensor_shape {
        }
        int64_val: 0
      }
    }
  }
}
node {
  name: "SparseToDense"
  op: "SparseToDense"
  input: "ParseSingleExample/ParseSingleExample:4"
  input: "ParseSingleExample/ParseSingleExample:14"
  input: "ParseSingleExample/ParseSingleExample:9"
  input: "SparseToDense/default_value"
  attr {
    key: "T"
    value {
      type: DT_INT64
    }
  }
  attr {
    key: "Tindices"
    value {
      type: DT_INT64
    }
  }
  attr {
    key: "_output_shapes"
    value {
      list {
        shape {
          dim {
            size: -1
          }
        }
      }
    }
  }
  attr {
    key: "validate_indices"
    value {
      b: true
    }
  }
}
node {
  name: "eval_image/convert_image/Cast"
  op: "Cast"
  input: "case/cond/Merge"
  attr {
    key: "DstT"
    value {
      type: DT_FLOAT
    }
  }
  attr {
    key: "SrcT"
    value {
      type: DT_UINT8
    }
  }
  attr {
    key: "Truncate"
    value {
      b: false
    }
  }
  attr {
    key: "_output_shapes"
    value {
      list {
        shape {
          dim {
            size: -1
          }
          dim {
            size: -1
          }
          dim {
            size: 3
          }
        }
      }
    }
  }
}
node {
  name: "eval_image/convert_image/y"
  op: "Const"
  attr {
    key: "_output_shapes"
    value {
      list {
        shape {
        }
      }
    }
  }
  attr {
    key: "dtype"
    value {
      type: DT_FLOAT
    }
  }
  attr {
    key: "value"
    value {
      tensor {
        dtype: DT_FLOAT
        tensor_shape {
        }
        float_val: 0.003921568859368563
      }
    }
  }
}
node {
  name: "eval_image/convert_image"
  op: "Mul"
  input: "eval_image/convert_image/Cast"
  input: "eval_image/convert_image/y"
  attr {
    key: "T"
    value {
      type: DT_FLOAT
    }
  }
  attr {
    key: "_output_shapes"
    value {
      list {
        shape {
          dim {
            size: -1
          }
          dim {
            size: -1
          }
          dim {
            size: 3
          }
        }
      }
    }
  }
}
node {
  name: "eval_image/central_crop/Shape"
  op: "Shape"
  input: "eval_image/convert_image"
  attr {
    key: "T"
    value {
      type: DT_FLOAT
    }
  }
  attr {
    key: "_output_shapes"
    value {
      list {
        shape {
          dim {
            size: 3
          }
        }
      }
    }
  }
  attr {
    key: "out_type"
    value {
      type: DT_INT32
    }
  }
}
node {
  name: "eval_image/central_crop/assert_positive/Const"
  op: "Const"
  attr {
    key: "_output_shapes"
    value {
      list {
        shape {
        }
      }
    }
  }
  attr {
    key: "dtype"
    value {
      type: DT_INT32
    }
  }
  attr {
    key: "value"
    value {
      tensor {
        dtype: DT_INT32
        tensor_shape {
        }
        int_val: 0
      }
    }
  }
}
node {
  name: "eval_image/central_crop/assert_positive/assert_less/Less"
  op: "Less"
  input: "eval_image/central_crop/assert_positive/Const"
  input: "eval_image/central_crop/Shape"
  attr {
    key: "T"
    value {
      type: DT_INT32
    }
  }
  attr {
    key: "_output_shapes"
    value {
      list {
        shape {
          dim {
            size: 3
          }
        }
      }
    }
  }
}
node {
  name: "eval_image/central_crop/assert_positive/assert_less/Const"
  op: "Const"
  attr {
    key: "_output_shapes"
    value {
      list {
        shape {
          dim {
            size: 1
          }
        }
      }
    }
  }
  attr {
    key: "dtype"
    value {
      type: DT_INT32
    }
  }
  attr {
    key: "value"
    value {
      tensor {
        dtype: DT_INT32
        tensor_shape {
          dim {
            size: 1
          }
        }
        int_val: 0
      }
    }
  }
}
node {
  name: "eval_image/central_crop/assert_positive/assert_less/All"
  op: "All"
  input: "eval_image/central_crop/assert_positive/assert_less/Less"
  input: "eval_image/central_crop/assert_positive/assert_less/Const"
  attr {
    key: "Tidx"
    value {
      type: DT_INT32
    }
  }
  attr {
    key: "_output_shapes"
    value {
      list {
        shape {
        }
      }
    }
  }
  attr {
    key: "keep_dims"
    value {
      b: false
    }
  }
}
node {
  name: "eval_image/central_crop/assert_positive/assert_less/Assert/Const"
  op: "Const"
  attr {
    key: "_output_shapes"
    value {
      list {
        shape {
        }
      }
    }
  }
  attr {
    key: "dtype"
    value {
      type: DT_STRING
    }
  }
  attr {
    key: "value"
    value {
      tensor {
        dtype: DT_STRING
        tensor_shape {
        }
        string_val: "all dims of \'image.shape\' must be > 0."
      }
    }
  }
}
node {
  name: "eval_image/central_crop/assert_positive/assert_less/Assert/Assert/data_0"
  op: "Const"
  attr {
    key: "_output_shapes"
    value {
      list {
        shape {
        }
      }
    }
  }
  attr {
    key: "dtype"
    value {
      type: DT_STRING
    }
  }
  attr {
    key: "value"
    value {
      tensor {
        dtype: DT_STRING
        tensor_shape {
        }
        string_val: "all dims of \'image.shape\' must be > 0."
      }
    }
  }
}
node {
  name: "eval_image/central_crop/assert_positive/assert_less/Assert/Assert"
  op: "Assert"
  input: "eval_image/central_crop/assert_positive/assert_less/All"
  input: "eval_image/central_crop/assert_positive/assert_less/Assert/Assert/data_0"
  attr {
    key: "T"
    value {
      list {
        type: DT_STRING
      }
    }
  }
  attr {
    key: "summarize"
    value {
      i: 3
    }
  }
}
node {
  name: "eval_image/central_crop/Rank"
  op: "Const"
  attr {
    key: "_output_shapes"
    value {
      list {
        shape {
        }
      }
    }
  }
  attr {
    key: "dtype"
    value {
      type: DT_INT32
    }
  }
  attr {
    key: "value"
    value {
      tensor {
        dtype: DT_INT32
        tensor_shape {
        }
        int_val: 3
      }
    }
  }
}
node {
  name: "eval_image/central_crop/assert_greater_equal/y"
  op: "Const"
  attr {
    key: "_output_shapes"
    value {
      list {
        shape {
        }
      }
    }
  }
  attr {
    key: "dtype"
    value {
      type: DT_INT32
    }
  }
  attr {
    key: "value"
    value {
      tensor {
        dtype: DT_INT32
        tensor_shape {
        }
        int_val: 3
      }
    }
  }
}
node {
  name: "eval_image/central_crop/assert_greater_equal/GreaterEqual"
  op: "GreaterEqual"
  input: "eval_image/central_crop/Rank"
  input: "eval_image/central_crop/assert_greater_equal/y"
  attr {
    key: "T"
    value {
      type: DT_INT32
    }
  }
  attr {
    key: "_output_shapes"
    value {
      list {
        shape {
        }
      }
    }
  }
}
node {
  name: "eval_image/central_crop/assert_greater_equal/Const"
  op: "Const"
  attr {
    key: "_output_shapes"
    value {
      list {
        shape {
          dim {
          }
        }
      }
    }
  }
  attr {
    key: "dtype"
    value {
      type: DT_INT32
    }
  }
  attr {
    key: "value"
    value {
      tensor {
        dtype: DT_INT32
        tensor_shape {
          dim {
          }
        }
      }
    }
  }
}
node {
  name: "eval_image/central_crop/assert_greater_equal/All"
  op: "All"
  input: "eval_image/central_crop/assert_greater_equal/GreaterEqual"
  input: "eval_image/central_crop/assert_greater_equal/Const"
  attr {
    key: "Tidx"
    value {
      type: DT_INT32
    }
  }
  attr {
    key: "_output_shapes"
    value {
      list {
        shape {
        }
      }
    }
  }
  attr {
    key: "keep_dims"
    value {
      b: false
    }
  }
}
node {
  name: "eval_image/central_crop/assert_greater_equal/Assert/Const"
  op: "Const"
  attr {
    key: "_output_shapes"
    value {
      list {
        shape {
        }
      }
    }
  }
  attr {
    key: "dtype"
    value {
      type: DT_STRING
    }
  }
  attr {
    key: "value"
    value {
      tensor {
        dtype: DT_STRING
        tensor_shape {
        }
        string_val: "\'image\' must be at least three-dimensional."
      }
    }
  }
}
node {
  name: "eval_image/central_crop/assert_greater_equal/Assert/Const_1"
  op: "Const"
  attr {
    key: "_output_shapes"
    value {
      list {
        shape {
        }
      }
    }
  }
  attr {
    key: "dtype"
    value {
      type: DT_STRING
    }
  }
  attr {
    key: "value"
    value {
      tensor {
        dtype: DT_STRING
        tensor_shape {
        }
        string_val: "Condition x >= y did not hold element-wise:"
      }
    }
  }
}
node {
  name: "eval_image/central_crop/assert_greater_equal/Assert/Const_2"
  op: "Const"
  attr {
    key: "_output_shapes"
    value {
      list {
        shape {
        }
      }
    }
  }
  attr {
    key: "dtype"
    value {
      type: DT_STRING
    }
  }
  attr {
    key: "value"
    value {
      tensor {
        dtype: DT_STRING
        tensor_shape {
        }
        string_val: "x (eval_image/central_crop/Rank:0) = "
      }
    }
  }
}
node {
  name: "eval_image/central_crop/assert_greater_equal/Assert/Const_3"
  op: "Const"
  attr {
    key: "_output_shapes"
    value {
      list {
        shape {
        }
      }
    }
  }
  attr {
    key: "dtype"
    value {
      type: DT_STRING
    }
  }
  attr {
    key: "value"
    value {
      tensor {
        dtype: DT_STRING
        tensor_shape {
        }
        string_val: "y (eval_image/central_crop/assert_greater_equal/y:0) = "
      }
    }
  }
}
node {
…
    key: "dtype"
    value {
      type: DT_FLOAT
    }
  }
}
node {
  name: "init_ops/report_uninitialized_variables/IsVariableInitialized_119"
  op: "IsVariableInitialized"
  input: "MobilenetV1/Conv2d_12_depthwise/BatchNorm/moving_variance"
  attr {
    key: "_class"
    value {
      list {
        s: "loc:@MobilenetV1/Conv2d_12_depthwise/BatchNorm/moving_variance"
      }
    }
  }
  attr {
    key: "_output_shapes"
    value {
      list {
        shape {
        }
      }
    }
  }
  attr {
    key: "dtype"
    value {
      type: DT_FLOAT
    }
  }
}
node {
  name: "init_ops/report_uninitialized_variables/IsVariableInitialized_120"
  op: "IsVariableInitialized"
  input: "MobilenetV1/Conv2d_12_pointwise/weights"
  attr {
    key: "_class"
    value {
      list {
        s: "loc:@MobilenetV1/Conv2d_12_pointwise/weights"
      }
    }
  }
  attr {
    key: "_output_shapes"
    value {
      list {
        shape {
        }
      }
    }
  }
  attr {
    key: "dtype"
    value {
      type: DT_FLOAT
    }
  }
}
node {
  name: "init_ops/report_uninitialized_variables/IsVariableInitialized_121"
  op: "IsVariableInitialized"
  input: "MobilenetV1/Conv2d_12_pointwise/BatchNorm/gamma"
  attr {
    key: "_class"
    value {
      list {
        s: "loc:@MobilenetV1/Conv2d_12_pointwise/BatchNorm/gamma"
      }
    }
  }
  attr {
    key: "_output_shapes"
    value {
      list {
        shape {
        }
      }
    }
  }
  attr {
    key: "dtype"
    value {
      type: DT_FLOAT
    }
  }
}
node {
  name: "init_ops/report_uninitialized_variables/IsVariableInitialized_122"
  op: "IsVariableInitialized"
  input: "MobilenetV1/Conv2d_12_pointwise/BatchNorm/beta"
  attr {
    key: "_class"
    value {
      list {
        s: "loc:@MobilenetV1/Conv2d_12_pointwise/BatchNorm/beta"
      }
    }
  }
  attr {
    key: "_output_shapes"
    value {
      list {
        shape {
        }
      }
    }
  }
  attr {
    key: "dtype"
    value {
      type: DT_FLOAT
    }
  }
}
node {
  name: "init_ops/report_uninitialized_variables/IsVariableInitialized_123"
  op: "IsVariableInitialized"
  input: "MobilenetV1/Conv2d_12_pointwise/BatchNorm/moving_mean"
  attr {
    key: "_class"
    value {
      list {
        s: "loc:@MobilenetV1/Conv2d_12_pointwise/BatchNorm/moving_mean"
      }
    }
  }
  attr {
    key: "_output_shapes"
    value {
      list {
        shape {
        }
      }
    }
  }
  attr {
    key: "dtype"
    value {
      type: DT_FLOAT
    }
  }
}
node {
  name: "init_ops/report_uninitialized_variables/IsVariableInitialized_124"
  op: "IsVariableInitialized"
  input: "MobilenetV1/Conv2d_12_pointwise/BatchNorm/moving_variance"
  attr {
    key: "_class"
    value {
      list {
        s: "loc:@MobilenetV1/Conv2d_12_pointwise/BatchNorm/moving_variance"
      }
    }
  }
  attr {
    key: "_output_shapes"
    value {
      list {
        shape {
        }
      }
    }
  }
  attr {
    key: "dtype"
    value {
      type: DT_FLOAT
    }
  }
}
node {
  name: "init_ops/report_uninitialized_variables/IsVariableInitialized_125"
  op: "IsVariableInitialized"
  input: "MobilenetV1/Conv2d_13_depthwise/depthwise_weights"
  attr {
    key: "_class"
    value {
      list {
        s: "loc:@MobilenetV1/Conv2d_13_depthwise/depthwise_weights"
      }
    }
  }
  attr {
    key: "_output_shapes"
    value {
      list {
        shape {
        }
      }
    }
  }
  attr {
    key: "dtype"
    value {
      type: DT_FLOAT
    }
  }
}
node {
  name: "init_ops/report_uninitialized_variables/IsVariableInitialized_126"
  op: "IsVariableInitialized"
  input: "MobilenetV1/Conv2d_13_depthwise/BatchNorm/gamma"
  attr {
    key: "_class"
    value {
      list {
        s: "loc:@MobilenetV1/Conv2d_13_depthwise/BatchNorm/gamma"
      }
    }
  }
  attr {
    key: "_output_shapes"
    value {
      list {
        shape {
        }
      }
    }
  }
  attr {
    key: "dtype"
    value {
      type: DT_FLOAT
    }
  }
}
node {
  name: "init_ops/report_uninitialized_variables/IsVariableInitialized_127"
  op: "IsVariableInitialized"
  input: "MobilenetV1/Conv2d_13_depthwise/BatchNorm/beta"
  attr {
    key: "_class"
    value {
      list {
        s: "loc:@MobilenetV1/Conv2d_13_depthwise/BatchNorm/beta"
      }
    }
  }
  attr {
    key: "_output_shapes"
    value {
      list {
        shape {
        }
      }
    }
  }
  attr {
    key: "dtype"
    value {
      type: DT_FLOAT
    }
  }
}
node {
  name: "init_ops/report_uninitialized_variables/IsVariableInitialized_128"
  op: "IsVariableInitialized"
  input: "MobilenetV1/Conv2d_13_depthwise/BatchNorm/moving_mean"
  attr {
    key: "_class"
    value {
      list {
        s: "loc:@MobilenetV1/Conv2d_13_depthwise/BatchNorm/moving_mean"
      }
    }
  }
  attr {
    key: "_output_shapes"
    value {
      list {
        shape {
        }
      }
    }
  }
  attr {
    key: "dtype"
    value {
      type: DT_FLOAT
    }
  }
}
node {
  name: "init_ops/report_uninitialized_variables/IsVariableInitialized_129"
  op: "IsVariableInitialized"
  input: "MobilenetV1/Conv2d_13_depthwise/BatchNorm/moving_variance"
  attr {
    key: "_class"
    value {
      list {
        s: "loc:@MobilenetV1/Conv2d_13_depthwise/BatchNorm/moving_variance"
      }
    }
  }
  attr {
    key: "_output_shapes"
    value {
      list {
        shape {
        }
      }
    }
  }
  attr {
    key: "dtype"
    value {
      type: DT_FLOAT
    }
  }
}
node {
  name: "init_ops/report_uninitialized_variables/IsVariableInitialized_130"
  op: "IsVariableInitialized"
  input: "MobilenetV1/Conv2d_13_pointwise/weights"
  attr {
    key: "_class"
    value {
      list {
        s: "loc:@MobilenetV1/Conv2d_13_pointwise/weights"
      }
    }
  }
  attr {
    key: "_output_shapes"
    value {
      list {
        shape {
        }
      }
    }
  }
  attr {
    key: "dtype"
    value {
      type: DT_FLOAT
    }
  }
}
node {
  name: "init_ops/report_uninitialized_variables/IsVariableInitialized_131"
  op: "IsVariableInitialized"
  input: "MobilenetV1/Conv2d_13_pointwise/BatchNorm/gamma"
  attr {
    key: "_class"
    value {
      list {
        s: "loc:@MobilenetV1/Conv2d_13_pointwise/BatchNorm/gamma"
      }
    }
  }
  attr {
    key: "_output_shapes"
    value {
      list {
        shape {
        }
      }
    }
  }
  attr {
    key: "dtype"
    value {
      type: DT_FLOAT
    }
  }
}
node {
  name: "init_ops/report_uninitialized_variables/IsVariableInitialized_132"
  op: "IsVariableInitialized"
  input: "MobilenetV1/Conv2d_13_pointwise/BatchNorm/beta"
  attr {
    key: "_class"
    value {
      list {
        s: "loc:@MobilenetV1/Conv2d_13_pointwise/BatchNorm/beta"
      }
    }
  }
  attr {
    key: "_output_shapes"
    value {
      list {
        shape {
        }
      }
    }
  }
  attr {
    key: "dtype"
    value {
      type: DT_FLOAT
    }
  }
}
node {
  name: "init_ops/report_uninitialized_variables/IsVariableInitialized_133"
  op: "IsVariableInitialized"
  input: "MobilenetV1/Conv2d_13_pointwise/BatchNorm/moving_mean"
  attr {
    key: "_class"
    value {
      list {
        s: "loc:@MobilenetV1/Conv2d_13_pointwise/BatchNorm/moving_mean"
      }
    }
  }
  attr {
    key: "_output_shapes"
    value {
      list {
        shape {
        }
      }
    }
  }
  attr {
    key: "dtype"
    value {
      type: DT_FLOAT
    }
  }
}
node {
  name: "init_ops/report_uninitialized_variables/IsVariableInitialized_134"
  op: "IsVariableInitialized"
  input: "MobilenetV1/Conv2d_13_pointwise/BatchNorm/moving_variance"
  attr {
    key: "_class"
    value {
      list {
        s: "loc:@MobilenetV1/Conv2d_13_pointwise/BatchNorm/moving_variance"
      }
    }
  }
  attr {
    key: "_output_shapes"
    value {
      list {
        shape {
        }
      }
    }
  }
  attr {
    key: "dtype"
    value {
      type: DT_FLOAT
    }
  }
}
node {
  name: "init_ops/report_uninitialized_variables/IsVariableInitialized_135"
  op: "IsVariableInitialized"
  input: "MobilenetV1/Logits/Conv2d_1c_1x1/weights"
  attr {
    key: "_class"
    value {
      list {
        s: "loc:@MobilenetV1/Logits/Conv2d_1c_1x1/weights"
      }
    }
  }
  attr {
    key: "_output_shapes"
    value {
      list {
        shape {
        }
      }
    }
  }
  attr {
    key: "dtype"
    value {
      type: DT_FLOAT
    }
  }
}
node {
  name: "init_ops/report_uninitialized_variables/IsVariableInitialized_136"
  op: "IsVariableInitialized"
  input: "MobilenetV1/Logits/Conv2d_1c_1x1/biases"
  attr {
    key: "_class"
    value {
      list {
        s: "loc:@MobilenetV1/Logits/Conv2d_1c_1x1/biases"
      }
    }
  }
  attr {
    key: "_output_shapes"
    value {
      list {
        shape {
        }
      }
    }
  }
  attr {
    key: "dtype"
    value {
      type: DT_FLOAT
    }
  }
}
node {
  name: "init_ops/report_uninitialized_variables/IsVariableInitialized_137"
  op: "IsVariableInitialized"
  input: "global_step"
  attr {
    key: "_class"
    value {
      list {
        s: "loc:@global_step"
      }
    }
  }
  attr {
    key: "_output_shapes"
    value {
      list {
        shape {
        }
      }
    }
  }
  attr {
    key: "dtype"
    value {
      type: DT_INT64
    }
  }
}
node {
  name: "init_ops/report_uninitialized_variables/stack"
  op: "Pack"
  input: "init_ops/report_uninitialized_variables/IsVariableInitialized"
  input: "init_ops/report_uninitialized_variables/IsVariableInitialized_1"
  input: "init_ops/report_uninitialized_variables/IsVariableInitialized_2"
  input: "init_ops/report_uninitialized_variables/IsVariableInitialized_3"
  input: "init_ops/report_uninitialized_variables/IsVariableInitialized_4"
  input: "init_ops/report_uninitialized_variables/IsVariableInitialized_5"
  input: "init_ops/report_uninitialized_variables/IsVariableInitialized_6"
  input: "init_ops/report_uninitialized_variables/IsVariableInitialized_7"
  input: "init_ops/report_uninitialized_variables/IsVariableInitialized_8"
  input: "init_ops/report_uninitialized_variables/IsVariableInitialized_9"
  input: "init_ops/report_uninitialized_variables/IsVariableInitialized_10"
  input: "init_ops/report_uninitialized_variables/IsVariableInitialized_11"
  input: "init_ops/report_uninitialized_variables/IsVariableInitialized_12"
  input: "init_ops/report_uninitialized_variables/IsVariableInitialized_13"
  input: "init_ops/report_uninitialized_variables/IsVariableInitialized_14"
  input: "init_ops/report_uninitialized_variables/IsVariableInitialized_15"
  input: "init_ops/report_uninitialized_variables/IsVariableInitialized_16"
  input: "init_ops/report_uninitialized_variables/IsVariableInitialized_17"
  input: "init_ops/report_uninitialized_variables/IsVariableInitialized_18"
  input: "init_ops/report_uninitialized_variables/IsVariableInitialized_19"
  input: "init_ops/report_uninitialized_variables/IsVariableInitialized_20"
  input: "init_ops/report_uninitialized_variables/IsVariableInitialized_21"
  input: "init_ops/report_uninitialized_variables/IsVariableInitialized_22"
  input: "init_ops/report_uninitialized_variables/IsVariableInitialized_23"
  input: "init_ops/report_uninitialized_variables/IsVariableInitialized_24"
  input: "init_ops/report_uninitialized_variables/IsVariableInitialized_25"
  input: "init_ops/report_uninitialized_variables/IsVariableInitialized_26"
  input: "init_ops/report_uninitialized_variables/IsVariableInitialized_27"
  input: "init_ops/report_uninitialized_variables/IsVariableInitialized_28"
  input: "init_ops/report_uninitialized_variables/IsVariableInitialized_29"
  input: "init_ops/report_uninitialized_variables/IsVariableInitialized_30"
  input: "init_ops/report_uninitialized_variables/IsVariableInitialized_31"
  input: "init_ops/report_uninitialized_variables/IsVariableInitialized_32"
  input: "init_ops/report_uninitialized_variables/IsVariableInitialized_33"
  input: "init_ops/report_uninitialized_variables/IsVariableInitialized_34"
  input: "init_ops/report_uninitialized_variables/IsVariableInitialized_35"
  input: "init_ops/report_uninitialized_variables/IsVariableInitialized_36"
  input: "init_ops/report_uninitialized_variables/IsVariableInitialized_37"
  input: "init_ops/report_uninitialized_variables/IsVariableInitialized_38"
  input: "init_ops/report_uninitialized_variables/IsVariableInitialized_39"
  input: "init_ops/report_uninitialized_variables/IsVariableInitialized_40"
  input: "init_ops/report_uninitialized_variables/IsVariableInitialized_41"
  input: "init_ops/report_uninitialized_variables/IsVariableInitialized_42"
  input: "init_ops/report_uninitialized_variables/IsVariableInitialized_43"
  input: "init_ops/report_uninitialized_variables/IsVariableInitialized_44"
  input: "init_ops/report_uninitialized_variables/IsVariableInitialized_45"
  input: "init_ops/report_uninitialized_variables/IsVariableInitialized_46"
  input: "init_ops/report_uninitialized_variables/IsVariableInitialized_47"
  input: "init_ops/report_uninitialized_variables/IsVariableInitialized_48"
  input: "init_ops/report_uninitialized_variables/IsVariableInitialized_49"
  input: "init_ops/report_uninitialized_variables/IsVariableInitialized_50"
  input: "init_ops/report_uninitialized_variables/IsVariableInitialized_51"
  input: "init_ops/report_uninitialized_variables/IsVariableInitialized_52"
  input: "init_ops/report_uninitialized_variables/IsVariableInitialized_53"
  input: "init_ops/report_uninitialized_variables/IsVariableInitialized_54"
  input: "init_ops/report_uninitialized_variables/IsVariableInitialized_55"
  input: "init_ops/report_uninitialized_variables/IsVariableInitialized_56"
  input: "init_ops/report_uninitialized_variables/IsVariableInitialized_57"
  input: "init_ops/report_uninitialized_variables/IsVariableInitialized_58"
  input: "init_ops/report_uninitialized_variables/IsVariableInitialized_59"
  input: "init_ops/report_uninitialized_variables/IsVariableInitialized_60"
  input: "init_ops/report_uninitialized_variables/IsVariableInitialized_61"
  input: "init_ops/report_uninitialized_variables/IsVariableInitialized_62"
  input: "init_ops/report_uninitialized_variables/IsVariableInitialized_63"
  input: "init_ops/report_uninitialized_variables/IsVariableInitialized_64"
  input: "init_ops/report_uninitialized_variables/IsVariableInitialized_65"
  input: "init_ops/report_uninitialized_variables/IsVariableInitialized_66"
  input: "init_ops/report_uninitialized_variables/IsVariableInitialized_67"
  input: "init_ops/report_uninitialized_variables/IsVariableInitialized_68"
  input: "init_ops/report_uninitialized_variables/IsVariableInitialized_69"
  input: "init_ops/report_uninitialized_variables/IsVariableInitialized_70"
  input: "init_ops/report_uninitialized_variables/IsVariableInitialized_71"
  input: "init_ops/report_uninitialized_variables/IsVariableInitialized_72"
  input: "init_ops/report_uninitialized_variables/IsVariableInitialized_73"
  input: "init_ops/report_uninitialized_variables/IsVariableInitialized_74"
  input: "init_ops/report_uninitialized_variables/IsVariableInitialized_75"
  input: "init_ops/report_uninitialized_variables/IsVariableInitialized_76"
  input: "init_ops/report_uninitialized_variables/IsVariableInitialized_77"
  input: "init_ops/report_uninitialized_variables/IsVariableInitialized_78"
  input: "init_ops/report_uninitialized_variables/IsVariableInitialized_79"
  input: "init_ops/report_uninitialized_variables/IsVariableInitialized_80"
  input: "init_ops/report_uninitialized_variables/IsVariableInitialized_81"
  input: "init_ops/report_uninitialized_variables/IsVariableInitialized_82"
  input: "init_ops/report_uninitialized_variables/IsVariableInitialized_83"
  input: "init_ops/report_uninitialized_variables/IsVariableInitialized_84"
  input: "init_ops/report_uninitialized_variables/IsVariableInitialized_85"
  input: "init_ops/report_uninitialized_variables/IsVariableInitialized_86"
  input: "init_ops/report_uninitialized_variables/IsVariableInitialized_87"
  input: "init_ops/report_uninitialized_variables/IsVariableInitialized_88"
  input: "init_ops/report_uninitialized_variables/IsVariableInitialized_89"
  input: "init_ops/report_uninitialized_variables/IsVariableInitialized_90"
  input: "init_ops/report_uninitialized_variables/IsVariableInitialized_91"
  input: "init_ops/report_uninitialized_variables/IsVariableInitialized_92"
  input: "init_ops/report_uninitialized_variables/IsVariableInitialized_93"
  input: "init_ops/report_uninitialized_variables/IsVariableInitialized_94"
  input: "init_ops/report_uninitialized_variables/IsVariableInitialized_95"
  input: "init_ops/report_uninitialized_variables/IsVariableInitialized_96"
  input: "init_ops/report_uninitialized_variables/IsVariableInitialized_97"
  input: "init_ops/report_uninitialized_variables/IsVariableInitialized_98"
  input: "init_ops/report_uninitialized_variables/IsVariableInitialized_99"
  input: "init_ops/report_uninitialized_variables/IsVariableInitialized_100"
  input: "init_ops/report_uninitialized_variables/IsVariableInitialized_101"
  input: "init_ops/report_uninitialized_variables/IsVariableInitialized_102"
  input: "init_ops/report_uninitialized_variables/IsVariableInitialized_103"
  input: "init_ops/report_uninitialized_variables/IsVariableInitialized_104"
  input: "init_ops/report_uninitialized_variables/IsVariableInitialized_105"
  input: "init_ops/report_uninitialized_variables/IsVariableInitialized_106"
  input: "init_ops/report_uninitialized_variables/IsVariableInitialized_107"
  input: "init_ops/report_uninitialized_variables/IsVariableInitialized_108"
  input: "init_ops/report_uninitialized_variables/IsVariableInitialized_109"
  input: "init_ops/report_uninitialized_variables/IsVariableInitialized_110"
  input: "init_ops/report_uninitialized_variables/IsVariableInitialized_111"
  input: "init_ops/report_uninitialized_variables/IsVariableInitialized_112"
  input: "init_ops/report_uninitialized_variables/IsVariableInitialized_113"
  input: "init_ops/report_uninitialized_variables/IsVariableInitialized_114"
  input: "init_ops/report_uninitialized_variables/IsVariableInitialized_115"
  input: "init_ops/report_uninitialized_variables/IsVariableInitialized_116"
  input: "init_ops/report_uninitialized_variables/IsVariableInitialized_117"
  input: "init_ops/report_uninitialized_variables/IsVariableInitialized_118"
  input: "init_ops/report_uninitialized_variables/IsVariableInitialized_119"
  input: "init_ops/report_uninitialized_variables/IsVariableInitialized_120"
  input: "init_ops/report_uninitialized_variables/IsVariableInitialized_121"
  input: "init_ops/report_uninitialized_variables/IsVariableInitialized_122"
  input: "init_ops/report_uninitialized_variables/IsVariableInitialized_123"
  input: "init_ops/report_uninitialized_variables/IsVariableInitialized_124"
  input: "init_ops/report_uninitialized_variables/IsVariableInitialized_125"
  input: "init_ops/report_uninitialized_variables/IsVariableInitialized_126"
  input: "init_ops/report_uninitialized_variables/IsVariableInitialized_127"
  input: "init_ops/report_uninitialized_variables/IsVariableInitialized_128"
  input: "init_ops/report_uninitialized_variables/IsVariableInitialized_129"
  input: "init_ops/report_uninitialized_variables/IsVariableInitialized_130"
  input: "init_ops/report_uninitialized_variables/IsVariableInitialized_131"
  input: "init_ops/report_uninitialized_variables/IsVariableInitialized_132"
  input: "init_ops/report_uninitialized_variables/IsVariableInitialized_133"
  input: "init_ops/report_uninitialized_variables/IsVariableInitialized_134"
  input: "init_ops/report_uninitialized_variables/IsVariableInitialized_135"
  input: "init_ops/report_uninitialized_variables/IsVariableInitialized_136"
  input: "init_ops/report_uninitialized_variables/IsVariableInitialized_137"
  device: "/device:CPU:0"
  attr {
    key: "N"
    value {
      i: 138
    }
  }
  attr {
    key: "T"
    value {
      type: DT_BOOL
    }
  }
  attr {
    key: "_output_shapes"
    value {
      list {
        shape {
          dim {
            size: 138
          }
        }
      }
    }
  }
  attr {
    key: "axis"
    value {
      i: 0
    }
  }
}
node {
  name: "init_ops/report_uninitialized_variables/LogicalNot"
  op: "LogicalNot"
  input: "init_ops/report_uninitialized_variables/stack"
  device: "/device:CPU:0"
  attr {
    key: "_output_shapes"
    value {
      list {
        shape {
          dim {
            size: 138
          }
        }
      }
    }
  }
}
node {
  name: "init_ops/report_uninitialized_variables/Const"
  op: "Const"
  device: "/device:CPU:0"
  attr {
    key: "_output_shapes"
    value {
      list {
        shape {
          dim {
            size: 138
          }
        }
      }
    }
  }
  attr {
    key: "dtype"
    value {
      type: DT_STRING
    }
  }
  attr {
    key: "value"
    value {
      tensor {
        dtype: DT_STRING
        tensor_shape {
          dim {
            size: 138
          }
        }
        string_val: "MobilenetV1/Conv2d_0/weights"
        string_val: "MobilenetV1/Conv2d_0/BatchNorm/gamma"
        string_val: "MobilenetV1/Conv2d_0/BatchNorm/beta"
        string_val: "MobilenetV1/Conv2d_0/BatchNorm/moving_mean"
        string_val: "MobilenetV1/Conv2d_0/BatchNorm/moving_variance"
        string_val: "MobilenetV1/Conv2d_1_depthwise/depthwise_weights"
        string_val: "MobilenetV1/Conv2d_1_depthwise/BatchNorm/gamma"
        string_val: "MobilenetV1/Conv2d_1_depthwise/BatchNorm/beta"
        string_val: "MobilenetV1/Conv2d_1_depthwise/BatchNorm/moving_mean"
        string_val: "MobilenetV1/Conv2d_1_depthwise/BatchNorm/moving_variance"
        string_val: "MobilenetV1/Conv2d_1_pointwise/weights"
        string_val: "MobilenetV1/Conv2d_1_pointwise/BatchNorm/gamma"
        string_val: "MobilenetV1/Conv2d_1_pointwise/BatchNorm/beta"
        string_val: "MobilenetV1/Conv2d_1_pointwise/BatchNorm/moving_mean"
        string_val: "MobilenetV1/Conv2d_1_pointwise/BatchNorm/moving_variance"
        string_val: "MobilenetV1/Conv2d_2_depthwise/depthwise_weights"
        string_val: "MobilenetV1/Conv2d_2_depthwise/BatchNorm/gamma"
        string_val: "MobilenetV1/Conv2d_2_depthwise/BatchNorm/beta"
        string_val: "MobilenetV1/Conv2d_2_depthwise/BatchNorm/moving_mean"
        string_val: "MobilenetV1/Conv2d_2_depthwise/BatchNorm/moving_variance"
        string_val: "MobilenetV1/Conv2d_2_pointwise/weights"
        string_val: "MobilenetV1/Conv2d_2_pointwise/BatchNorm/gamma"
        string_val: "MobilenetV1/Conv2d_2_pointwise/BatchNorm/beta"
        string_val: "MobilenetV1/Conv2d_2_pointwise/BatchNorm/moving_mean"
        string_val: "MobilenetV1/Conv2d_2_pointwise/BatchNorm/moving_variance"
        string_val: "MobilenetV1/Conv2d_3_depthwise/depthwise_weights"
        string_val: "MobilenetV1/Conv2d_3_depthwise/BatchNorm/gamma"
        string_val: "MobilenetV1/Conv2d_3_depthwise/BatchNorm/beta"
        string_val: "MobilenetV1/Conv2d_3_depthwise/BatchNorm/moving_mean"
        string_val: "MobilenetV1/Conv2d_3_depthwise/BatchNorm/moving_variance"
        string_val: "MobilenetV1/Conv2d_3_pointwise/weights"
        string_val: "MobilenetV1/Conv2d_3_pointwise/BatchNorm/gamma"
        string_val: "MobilenetV1/Conv2d_3_pointwise/BatchNorm/beta"
        string_val: "MobilenetV1/Conv2d_3_pointwise/BatchNorm/moving_mean"
        string_val: "MobilenetV1/Conv2d_3_pointwise/BatchNorm/moving_variance"
        string_val: "MobilenetV1/Conv2d_4_depthwise/depthwise_weights"
        string_val: "MobilenetV1/Conv2d_4_depthwise/BatchNorm/gamma"
        string_val: "MobilenetV1/Conv2d_4_depthwise/BatchNorm/beta"
        string_val: "MobilenetV1/Conv2d_4_depthwise/BatchNorm/moving_mean"
        string_val: "MobilenetV1/Conv2d_4_depthwise/BatchNorm/moving_variance"
        string_val: "MobilenetV1/Conv2d_4_pointwise/weights"
        string_val: "MobilenetV1/Conv2d_4_pointwise/BatchNorm/gamma"
        string_val: "MobilenetV1/Conv2d_4_pointwise/BatchNorm/beta"
        string_val: "MobilenetV1/Conv2d_4_pointwise/BatchNorm/moving_mean"
        string_val: "MobilenetV1/Conv2d_4_pointwise/BatchNorm/moving_variance"
        string_val: "MobilenetV1/Conv2d_5_depthwise/depthwise_weights"
        string_val: "MobilenetV1/Conv2d_5_depthwise/BatchNorm/gamma"
        string_val: "MobilenetV1/Conv2d_5_depthwise/BatchNorm/beta"
        string_val: "MobilenetV1/Conv2d_5_depthwise/BatchNorm/moving_mean"
        string_val: "MobilenetV1/Conv2d_5_depthwise/BatchNorm/moving_variance"
        string_val: "MobilenetV1/Conv2d_5_pointwise/weights"
        string_val: "MobilenetV1/Conv2d_5_pointwise/BatchNorm/gamma"
        string_val: "MobilenetV1/Conv2d_5_pointwise/BatchNorm/beta"
        string_val: "MobilenetV1/Conv2d_5_pointwise/BatchNorm/moving_mean"
        string_val: "MobilenetV1/Conv2d_5_pointwise/BatchNorm/moving_variance"
        string_val: "MobilenetV1/Conv2d_6_depthwise/depthwise_weights"
        string_val: "MobilenetV1/Conv2d_6_depthwise/BatchNorm/gamma"
        string_val: "MobilenetV1/Conv2d_6_depthwise/BatchNorm/beta"
        string_val: "MobilenetV1/Conv2d_6_depthwise/BatchNorm/moving_mean"
        string_val: "MobilenetV1/Conv2d_6_depthwise/BatchNorm/moving_variance"
        string_val: "MobilenetV1/Conv2d_6_pointwise/weights"
        string_val: "MobilenetV1/Conv2d_6_pointwise/BatchNorm/gamma"
        string_val: "MobilenetV1/Conv2d_6_pointwise/BatchNorm/beta"
        string_val: "MobilenetV1/Conv2d_6_pointwise/BatchNorm/moving_mean"
        string_val: "MobilenetV1/Conv2d_6_pointwise/BatchNorm/moving_variance"
        string_val: "MobilenetV1/Conv2d_7_depthwise/depthwise_weights"
        string_val: "MobilenetV1/Conv2d_7_depthwise/BatchNorm/gamma"
        string_val: "MobilenetV1/Conv2d_7_depthwise/BatchNorm/beta"
        string_val: "MobilenetV1/Conv2d_7_depthwise/BatchNorm/moving_mean"
        string_val: "MobilenetV1/Conv2d_7_depthwise/BatchNorm/moving_variance"
        string_val: "MobilenetV1/Conv2d_7_pointwise/weights"
        string_val: "MobilenetV1/Conv2d_7_pointwise/BatchNorm/gamma"
        string_val: "MobilenetV1/Conv2d_7_pointwise/BatchNorm/beta"
        string_val: "MobilenetV1/Conv2d_7_pointwise/BatchNorm/moving_mean"
        string_val: "MobilenetV1/Conv2d_7_pointwise/BatchNorm/moving_variance"
        string_val: "MobilenetV1/Conv2d_8_depthwise/depthwise_weights"
        string_val: "MobilenetV1/Conv2d_8_depthwise/BatchNorm/gamma"
        string_val: "MobilenetV1/Conv2d_8_depthwise/BatchNorm/beta"
        string_val: "MobilenetV1/Conv2d_8_depthwise/BatchNorm/moving_mean"
        string_val: "MobilenetV1/Conv2d_8_depthwise/BatchNorm/moving_variance"
        string_val: "MobilenetV1/Conv2d_8_pointwise/weights"
        string_val: "MobilenetV1/Conv2d_8_pointwise/BatchNorm/gamma"
        string_val: "MobilenetV1/Conv2d_8_pointwise/BatchNorm/beta"
        string_val: "MobilenetV1/Conv2d_8_pointwise/BatchNorm/moving_mean"
        string_val: "MobilenetV1/Conv2d_8_pointwise/BatchNorm/moving_variance"
        string_val: "MobilenetV1/Conv2d_9_depthwise/depthwise_weights"
        string_val: "MobilenetV1/Conv2d_9_depthwise/BatchNorm/gamma"
        string_val: "MobilenetV1/Conv2d_9_depthwise/BatchNorm/beta"
        string_val: "MobilenetV1/Conv2d_9_depthwise/BatchNorm/moving_mean"
        string_val: "MobilenetV1/Conv2d_9_depthwise/BatchNorm/moving_variance"
        string_val: "MobilenetV1/Conv2d_9_pointwise/weights"
        string_val: "MobilenetV1/Conv2d_9_pointwise/BatchNorm/gamma"
        string_val: "MobilenetV1/Conv2d_9_pointwise/BatchNorm/beta"
        string_val: "MobilenetV1/Conv2d_9_pointwise/BatchNorm/moving_mean"
        string_val: "MobilenetV1/Conv2d_9_pointwise/BatchNorm/moving_variance"
        string_val: "MobilenetV1/Conv2d_10_depthwise/depthwise_weights"
        string_val: "MobilenetV1/Conv2d_10_depthwise/BatchNorm/gamma"
        string_val: "MobilenetV1/Conv2d_10_depthwise/BatchNorm/beta"
        string_val: "MobilenetV1/Conv2d_10_depthwise/BatchNorm/moving_mean"
        string_val: "MobilenetV1/Conv2d_10_depthwise/BatchNorm/moving_variance"
        string_val: "MobilenetV1/Conv2d_10_pointwise/weights"
        string_val: "MobilenetV1/Conv2d_10_pointwise/BatchNorm/gamma"
        string_val: "MobilenetV1/Conv2d_10_pointwise/BatchNorm/beta"
        string_val: "MobilenetV1/Conv2d_10_pointwise/BatchNorm/moving_mean"
        string_val: "MobilenetV1/Conv2d_10_pointwise/BatchNorm/moving_variance"
        string_val: "MobilenetV1/Conv2d_11_depthwise/depthwise_weights"
        string_val: "MobilenetV1/Conv2d_11_depthwise/BatchNorm/gamma"
        string_val: "MobilenetV1/Conv2d_11_depthwise/BatchNorm/beta"
        string_val: "MobilenetV1/Conv2d_11_depthwise/BatchNorm/moving_mean"
        string_val: "MobilenetV1/Conv2d_11_depthwise/BatchNorm/moving_variance"
        string_val: "MobilenetV1/Conv2d_11_pointwise/weights"
        string_val: "MobilenetV1/Conv2d_11_pointwise/BatchNorm/gamma"
        string_val: "MobilenetV1/Conv2d_11_pointwise/BatchNorm/beta"
        string_val: "MobilenetV1/Conv2d_11_pointwise/BatchNorm/moving_mean"
        string_val: "MobilenetV1/Conv2d_11_pointwise/BatchNorm/moving_variance"
        string_val: "MobilenetV1/Conv2d_12_depthwise/depthwise_weights"
        string_val: "MobilenetV1/Conv2d_12_depthwise/BatchNorm/gamma"
        string_val: "MobilenetV1/Conv2d_12_depthwise/BatchNorm/beta"
        string_val: "MobilenetV1/Conv2d_12_depthwise/BatchNorm/moving_mean"
        string_val: "MobilenetV1/Conv2d_12_depthwise/BatchNorm/moving_variance"
        string_val: "MobilenetV1/Conv2d_12_pointwise/weights"
        string_val: "MobilenetV1/Conv2d_12_pointwise/BatchNorm/gamma"
        string_val: "MobilenetV1/Conv2d_12_pointwise/BatchNorm/beta"
        string_val: "MobilenetV1/Conv2d_12_pointwise/BatchNorm/moving_mean"
        string_val: "MobilenetV1/Conv2d_12_pointwise/BatchNorm/moving_variance"
        string_val: "MobilenetV1/Conv2d_13_depthwise/depthwise_weights"
        string_val: "MobilenetV1/Conv2d_13_depthwise/BatchNorm/gamma"
        string_val: "MobilenetV1/Conv2d_13_depthwise/BatchNorm/beta"
        string_val: "MobilenetV1/Conv2d_13_depthwise/BatchNorm/moving_mean"
        string_val: "MobilenetV1/Conv2d_13_depthwise/BatchNorm/moving_variance"
        string_val: "MobilenetV1/Conv2d_13_pointwise/weights"
        string_val: "MobilenetV1/Conv2d_13_pointwise/BatchNorm/gamma"
        string_val: "MobilenetV1/Conv2d_13_pointwise/BatchNorm/beta"
        string_val: "MobilenetV1/Conv2d_13_pointwise/BatchNorm/moving_mean"
        string_val: "MobilenetV1/Conv2d_13_pointwise/BatchNorm/moving_variance"
        string_val: "MobilenetV1/Logits/Conv2d_1c_1x1/weights"
        string_val: "MobilenetV1/Logits/Conv2d_1c_1x1/biases"
        string_val: "global_step"
      }
    }
  }
}
node {
  name: "init_ops/report_uninitialized_variables/boolean_mask/Shape"
  op: "Const"
  device: "/device:CPU:0"
  attr {
    key: "_output_shapes"
    value {
      list {
        shape {
          dim {
            size: 1
          }
        }
      }
    }
  }
  attr {
    key: "dtype"
    value {
      type: DT_INT32
    }
  }
  attr {
    key: "value"
    value {
      tensor {
        dtype: DT_INT32
        tensor_shape {
          dim {
            size: 1
          }
        }
        int_val: 138
      }
    }
  }
}
node {
  name: "init_ops/report_uninitialized_variables/boolean_mask/strided_slice/stack"
  op: "Const"
  device: "/device:CPU:0"
  attr {
    key: "_output_shapes"
    value {
      list {
        shape {
          dim {
            size: 1
          }
        }
      }
    }
  }
  attr {
    key: "dtype"
    value {
      type: DT_INT32
    }
  }
  attr {
    key: "value"
    value {
      tensor {
        dtype: DT_INT32
        tensor_shape {
          dim {
            size: 1
          }
        }
        int_val: 0
      }
    }
  }
}
node {
  name: "init_ops/report_uninitialized_variables/boolean_mask/strided_slice/stack_1"
  op: "Const"
  device: "/device:CPU:0"
  attr {
    key: "_output_shapes"
    value {
      list {
        shape {
          dim {
            size: 1
          }
        }
      }
    }
  }
  attr {
    key: "dtype"
    value {
      type: DT_INT32
    }
  }
  attr {
    key: "value"
    value {
      tensor {
        dtype: DT_INT32
        tensor_shape {
          dim {
            size: 1
          }
        }
        int_val: 1
      }
    }
  }
}
node {
  name: "init_ops/report_uninitialized_variables/boolean_mask/strided_slice/stack_2"
  op: "Const"
  device: "/device:CPU:0"
  attr {
    key: "_output_shapes"
    value {
      list {
        shape {
          dim {
            size: 1
          }
        }
      }
    }
  }
  attr {
    key: "dtype"
    value {
      type: DT_INT32
    }
  }
  attr {
    key: "value"
    value {
      tensor {
        dtype: DT_INT32
        tensor_shape {
          dim {
            size: 1
          }
        }
        int_val: 1
      }
    }
  }
}
node {
  name: "init_ops/report_uninitialized_variables/boolean_mask/strided_slice"
  op: "StridedSlice"
  input: "init_ops/report_uninitialized_variables/boolean_mask/Shape"
  input: "init_ops/report_uninitialized_variables/boolean_mask/strided_slice/stack"
  input: "init_ops/report_uninitialized_variables/boolean_mask/strided_slice/stack_1"
  input: "init_ops/report_uninitialized_variables/boolean_mask/strided_slice/stack_2"
  device: "/device:CPU:0"
  attr {
    key: "Index"
    value {
      type: DT_INT32
    }
  }
  attr {
    key: "T"
    value {
      type: DT_INT32
    }
  }
  attr {
    key: "_output_shapes"
    value {
      list {
        shape {
          dim {
            size: 1
          }
        }
      }
    }
  }
  attr {
    key: "begin_mask"
    value {
      i: 0
    }
  }
  attr {
    key: "ellipsis_mask"
    value {
      i: 0
    }
  }
  attr {
    key: "end_mask"
    value {
      i: 0
    }
  }
  attr {
    key: "new_axis_mask"
    value {
      i: 0
    }
  }
  attr {
    key: "shrink_axis_mask"
    value {
      i: 0
    }
  }
}
node {
  name: "init_ops/report_uninitialized_variables/boolean_mask/Prod/reduction_indices"
  op: "Const"
  device: "/device:CPU:0"
  attr {
    key: "_output_shapes"
    value {
      list {
        shape {
          dim {
            size: 1
          }
        }
      }
    }
  }
  attr {
    key: "dtype"
    value {
      type: DT_INT32
    }
  }
  attr {
    key: "value"
    value {
      tensor {
        dtype: DT_INT32
        tensor_shape {
          dim {
            size: 1
          }
        }
        int_val: 0
      }
    }
  }
}
node {
  name: "init_ops/report_uninitialized_variables/boolean_mask/Prod"
  op: "Prod"
  input: "init_ops/report_uninitialized_variables/boolean_mask/strided_slice"
  input: "init_ops/report_uninitialized_variables/boolean_mask/Prod/reduction_indices"
  device: "/device:CPU:0"
  attr {
    key: "T"
    value {
      type: DT_INT32
    }
  }
  attr {
    key: "Tidx"
    value {
      type: DT_INT32
    }
  }
  attr {
    key: "_output_shapes"
    value {
      list {
        shape {
        }
      }
    }
  }
  attr {
    key: "keep_dims"
    value {
      b: false
    }
  }
}
node {
  name: "init_ops/report_uninitialized_variables/boolean_mask/Shape_1"
  op: "Const"
  device: "/device:CPU:0"
  attr {
    key: "_output_shapes"
    value {
      list {
        shape {
          dim {
            size: 1
          }
        }
      }
    }
  }
  attr {
    key: "dtype"
    value {
      type: DT_INT32
    }
  }
  attr {
    key: "value"
    value {
      tensor {
        dtype: DT_INT32
        tensor_shape {
          dim {
            size: 1
          }
        }
        int_val: 138
      }
    }
  }
}
node {
  name: "init_ops/report_uninitialized_variables/boolean_mask/strided_slice_1/stack"
  op: "Const"
  device: "/device:CPU:0"
  attr {
    key: "_output_shapes"
    value {
      list {
        shape {
          dim {
            size: 1
          }
        }
      }
    }
  }
  attr {
    key: "dtype"
    value {
      type: DT_INT32
    }
  }
  attr {
    key: "value"
    value {
      tensor {
        dtype: DT_INT32
        tensor_shape {
          dim {
            size: 1
          }
        }
        int_val: 0
      }
    }
  }
}
node {
  name: "init_ops/report_uninitialized_variables/boolean_mask/strided_slice_1/stack_1"
  op: "Const"
  device: "/device:CPU:0"
  attr {
    key: "_output_shapes"
    value {
      list {
        shape {
          dim {
            size: 1
          }
        }
      }
    }
  }
  attr {
    key: "dtype"
    value {
      type: DT_INT32
    }
  }
  attr {
    key: "value"
    value {
      tensor {
        dtype: DT_INT32
        tensor_shape {
          dim {
            size: 1
          }
        }
        int_val: 0
      }
    }
  }
}
node {
  name: "init_ops/report_uninitialized_variables/boolean_mask/strided_slice_1/stack_2"
  op: "Const"
  device: "/device:CPU:0"
  attr {
    key: "_output_shapes"
    value {
      list {
        shape {
          dim {
            size: 1
          }
        }
      }
    }
  }
  attr {
    key: "dtype"
    value {
      type: DT_INT32
    }
  }
  attr {
    key: "value"
    value {
      tensor {
        dtype: DT_INT32
        tensor_shape {
          dim {
            size: 1
          }
        }
        int_val: 1
      }
    }
  }
}
node {
  name: "init_ops/report_uninitialized_variables/boolean_mask/strided_slice_1"
  op: "StridedSlice"
  input: "init_ops/report_uninitialized_variables/boolean_mask/Shape_1"
  input: "init_ops/report_uninitialized_variables/boolean_mask/strided_slice_1/stack"
  input: "init_ops/report_uninitialized_variables/boolean_mask/strided_slice_1/stack_1"
  input: "init_ops/report_uninitialized_variables/boolean_mask/strided_slice_1/stack_2"
  device: "/device:CPU:0"
  attr {
    key: "Index"
    value {
      type: DT_INT32
    }
  }
  attr {
    key: "T"
    value {
      type: DT_INT32
    }
  }
  attr {
    key: "_output_shapes"
    value {
      list {
        shape {
          dim {
          }
        }
      }
    }
  }
  attr {
    key: "begin_mask"
    value {
      i: 1
    }
  }
  attr {
    key: "ellipsis_mask"
    value {
      i: 0
    }
  }
  attr {
    key: "end_mask"
    value {
      i: 0
    }
  }
  attr {
    key: "new_axis_mask"
    value {
      i: 0
    }
  }
  attr {
    key: "shrink_axis_mask"
    value {
      i: 0
    }
  }
}
node {
  name: "init_ops/report_uninitialized_variables/boolean_mask/Shape_2"
  op: "Const"
  device: "/device:CPU:0"
  attr {
    key: "_output_shapes"
    value {
      list {
        shape {
          dim {
            size: 1
          }
        }
      }
    }
  }
  attr {
    key: "dtype"
    value {
      type: DT_INT32
    }
  }
  attr {
    key: "value"
    value {
      tensor {
        dtype: DT_INT32
        tensor_shape {
          dim {
            size: 1
          }
        }
        int_val: 138
      }
    }
  }
}
node {
  name: "init_ops/report_uninitialized_variables/boolean_mask/strided_slice_2/stack"
  op: "Const"
  device: "/device:CPU:0"
  attr {
    key: "_output_shapes"
    value {
      list {
        shape {
          dim {
            size: 1
          }
        }
      }
    }
  }
  attr {
    key: "dtype"
    value {
      type: DT_INT32
    }
  }
  attr {
    key: "value"
    value {
      tensor {
        dtype: DT_INT32
        tensor_shape {
          dim {
            size: 1
          }
        }
        int_val: 1
      }
    }
  }
}
node {
  name: "init_ops/report_uninitialized_variables/boolean_mask/strided_slice_2/stack_1"
  op: "Const"
  device: "/device:CPU:0"
  attr {
    key: "_output_shapes"
    value {
      list {
        shape {
          dim {
            size: 1
          }
        }
      }
    }
  }
  attr {
    key: "dtype"
    value {
      type: DT_INT32
    }
  }
  attr {
    key: "value"
    value {
      tensor {
        dtype: DT_INT32
        tensor_shape {
          dim {
            size: 1
          }
        }
        int_val: 0
      }
    }
  }
}
node {
  name: "init_ops/report_uninitialized_variables/boolean_mask/strided_slice_2/stack_2"
  op: "Const"
  device: "/device:CPU:0"
  attr {
    key: "_output_shapes"
    value {
      list {
        shape {
          dim {
            size: 1
          }
        }
      }
    }
  }
  attr {
    key: "dtype"
    value {
      type: DT_INT32
    }
  }
  attr {
    key: "value"
    value {
      tensor {
        dtype: DT_INT32
        tensor_shape {
          dim {
            size: 1
          }
        }
        int_val: 1
      }
    }
  }
}
node {
  name: "init_ops/report_uninitialized_variables/boolean_mask/strided_slice_2"
  op: "StridedSlice"
  input: "init_ops/report_uninitialized_variables/boolean_mask/Shape_2"
  input: "init_ops/report_uninitialized_variables/boolean_mask/strided_slice_2/stack"
  input: "init_ops/report_uninitialized_variables/boolean_mask/strided_slice_2/stack_1"
  input: "init_ops/report_uninitialized_variables/boolean_mask/strided_slice_2/stack_2"
  device: "/device:CPU:0"
  attr {
    key: "Index"
    value {
      type: DT_INT32
    }
  }
  attr {
    key: "T"
    value {
      type: DT_INT32
    }
  }
  attr {
    key: "_output_shapes"
    value {
      list {
        shape {
          dim {
          }
        }
      }
    }
  }
  attr {
    key: "begin_mask"
    value {
      i: 0
    }
  }
  attr {
    key: "ellipsis_mask"
    value {
      i: 0
    }
  }
  attr {
    key: "end_mask"
    value {
      i: 1
    }
  }
  attr {
    key: "new_axis_mask"
    value {
      i: 0
    }
  }
  attr {
    key: "shrink_axis_mask"
    value {
      i: 0
    }
  }
}
node {
  name: "init_ops/report_uninitialized_variables/boolean_mask/concat/values_1"
  op: "Pack"
  input: "init_ops/report_uninitialized_variables/boolean_mask/Prod"
  device: "/device:CPU:0"
  attr {
    key: "N"
    value {
      i: 1
    }
  }
  attr {
    key: "T"
    value {
      type: DT_INT32
    }
  }
  attr {
    key: "_output_shapes"
    value {
      list {
        shape {
          dim {
            size: 1
          }
        }
      }
    }
  }
  attr {
    key: "axis"
    value {
      i: 0
    }
  }
}
node {
  name: "init_ops/report_uninitialized_variables/boolean_mask/concat/axis"
  op: "Const"
  device: "/device:CPU:0"
  attr {
    key: "_output_shapes"
    value {
      list {
        shape {
        }
      }
    }
  }
  attr {
    key: "dtype"
    value {
      type: DT_INT32
    }
  }
  attr {
    key: "value"
    value {
      tensor {
        dtype: DT_INT32
        tensor_shape {
        }
        int_val: 0
      }
    }
  }
}
node {
  name: "init_ops/report_uninitialized_variables/boolean_mask/concat"
  op: "ConcatV2"
  input: "init_ops/report_uninitialized_variables/boolean_mask/strided_slice_1"
  input: "init_ops/report_uninitialized_variables/boolean_mask/concat/values_1"
  input: "init_ops/report_uninitialized_variables/boolean_mask/strided_slice_2"
  input: "init_ops/report_uninitialized_variables/boolean_mask/concat/axis"
  device: "/device:CPU:0"
  attr {
    key: "N"
    value {
      i: 3
    }
  }
  attr {
    key: "T"
    value {
      type: DT_INT32
    }
  }
  attr {
    key: "Tidx"
    value {
      type: DT_INT32
    }
  }
  attr {
    key: "_output_shapes"
    value {
      list {
        shape {
          dim {
            size: 1
          }
        }
      }
    }
  }
}
node {
  name: "init_ops/report_uninitialized_variables/boolean_mask/Reshape"
  op: "Reshape"
  input: "init_ops/report_uninitialized_variables/Const"
  input: "init_ops/report_uninitialized_variables/boolean_mask/concat"
  device: "/device:CPU:0"
  attr {
    key: "T"
    value {
      type: DT_STRING
    }
  }
  attr {
    key: "Tshape"
    value {
      type: DT_INT32
    }
  }
  attr {
    key: "_output_shapes"
    value {
      list {
        shape {
          dim {
            size: 138
          }
        }
      }
    }
  }
}
node {
  name: "init_ops/report_uninitialized_variables/boolean_mask/Reshape_1/shape"
  op: "Const"
  device: "/device:CPU:0"
  attr {
    key: "_output_shapes"
    value {
      list {
        shape {
          dim {
            size: 1
          }
        }
      }
    }
  }
  attr {
    key: "dtype"
    value {
      type: DT_INT32
    }
  }
  attr {
    key: "value"
    value {
      tensor {
        dtype: DT_INT32
        tensor_shape {
          dim {
            size: 1
          }
        }
        int_val: -1
      }
    }
  }
}
node {
  name: "init_ops/report_uninitialized_variables/boolean_mask/Reshape_1"
  op: "Reshape"
  input: "init_ops/report_uninitialized_variables/LogicalNot"
  input: "init_ops/report_uninitialized_variables/boolean_mask/Reshape_1/shape"
  device: "/device:CPU:0"
  attr {
    key: "T"
    value {
      type: DT_BOOL
    }
  }
  attr {
    key: "Tshape"
    value {
      type: DT_INT32
    }
  }
  attr {
    key: "_output_shapes"
    value {
      list {
        shape {
          dim {
            size: 138
          }
        }
      }
    }
  }
}
node {
  name: "init_ops/report_uninitialized_variables/boolean_mask/Where"
  op: "Where"
  input: "init_ops/report_uninitialized_variables/boolean_mask/Reshape_1"
  device: "/device:CPU:0"
  attr {
    key: "T"
    value {
      type: DT_BOOL
    }
  }
  attr {
    key: "_output_shapes"
    value {
      list {
        shape {
          dim {
            size: -1
          }
          dim {
            size: 1
          }
        }
      }
    }
  }
}
node {
  name: "init_ops/report_uninitialized_variables/boolean_mask/Squeeze"
  op: "Squeeze"
  input: "init_ops/report_uninitialized_variables/boolean_mask/Where"
  device: "/device:CPU:0"
  attr {
    key: "T"
    value {
      type: DT_INT64
    }
  }
  attr {
    key: "_output_shapes"
    value {
      list {
        shape {
          dim {
            size: -1
          }
        }
      }
    }
  }
  attr {
    key: "squeeze_dims"
    value {
      list {
        i: 1
      }
    }
  }
}
node {
  name: "init_ops/report_uninitialized_variables/boolean_mask/GatherV2/axis"
  op: "Const"
  device: "/device:CPU:0"
  attr {
    key: "_output_shapes"
    value {
      list {
        shape {
        }
      }
    }
  }
  attr {
    key: "dtype"
    value {
      type: DT_INT32
    }
  }
  attr {
    key: "value"
    value {
      tensor {
        dtype: DT_INT32
        tensor_shape {
        }
        int_val: 0
      }
    }
  }
}
node {
  name: "init_ops/report_uninitialized_variables/boolean_mask/GatherV2"
  op: "GatherV2"
  input: "init_ops/report_uninitialized_variables/boolean_mask/Reshape"
  input: "init_ops/report_uninitialized_variables/boolean_mask/Squeeze"
  input: "init_ops/report_uninitialized_variables/boolean_mask/GatherV2/axis"
  device: "/device:CPU:0"
  attr {
    key: "Taxis"
    value {
      type: DT_INT32
    }
  }
  attr {
    key: "Tindices"
    value {
      type: DT_INT64
    }
  }
  attr {
    key: "Tparams"
    value {
      type: DT_STRING
    }
  }
  attr {
    key: "_output_shapes"
    value {
      list {
        shape {
          dim {
            size: -1
          }
        }
      }
    }
  }
  attr {
    key: "batch_dims"
    value {
      i: 0
    }
  }
}
node {
  name: "init_ops/init_1"
  op: "NoOp"
}
node {
  name: "init_ops/init_all_tables"
  op: "NoOp"
}
node {
  name: "init_ops/group_deps"
  op: "NoOp"
  input: "^init_ops/init_1"
  input: "^init_ops/init_all_tables"
}
node {
  name: "Merge/MergeSummary"
  op: "MergeSummary"
  input: "parallel_read/filenames/fraction_of_32_full"
  input: "parallel_read/fraction_of_128_full"
  input: "batch/fraction_of_320_full"
  input: "losses/total_loss"
  input: "training/learning_rate"
  attr {
    key: "N"
    value {
      i: 5
    }
  }
  attr {
    key: "_output_shapes"
    value {
      list {
        shape {
        }
      }
    }
  }
}
node {
  name: "train_step/GreaterEqual/y"
  op: "Const"
  attr {
    key: "_output_shapes"
    value {
      list {
        shape {
        }
      }
    }
  }
  attr {
    key: "dtype"
    value {
      type: DT_INT64
    }
  }
  attr {
    key: "value"
    value {
      tensor {
        dtype: DT_INT64
        tensor_shape {
        }
        int64_val: 1000
      }
    }
  }
}
node {
  name: "train_step/GreaterEqual"
  op: "GreaterEqual"
  input: "global_step/read"
  input: "train_step/GreaterEqual/y"
  attr {
    key: "T"
    value {
      type: DT_INT64
    }
  }
  attr {
    key: "_output_shapes"
    value {
      list {
        shape {
        }
      }
    }
  }
}
node {
  name: "train_step/FloorMod/y"
  op: "Const"
  attr {
    key: "_output_shapes"
    value {
      list {
        shape {
        }
      }
    }
  }
  attr {
    key: "dtype"
    value {
      type: DT_INT64
    }
  }
  attr {
    key: "value"
    value {
      tensor {
        dtype: DT_INT64
        tensor_shape {
        }
        int64_val: 100
      }
    }
  }
}
node {
  name: "train_step/FloorMod"
  op: "FloorMod"
  input: "global_step/read"
  input: "train_step/FloorMod/y"
  attr {
    key: "T"
    value {
      type: DT_INT64
    }
  }
  attr {
    key: "_output_shapes"
    value {
      list {
        shape {
        }
      }
    }
  }
}
node {
  name: "train_step/Equal/y"
  op: "Const"
  attr {
    key: "_output_shapes"
    value {
      list {
        shape {
        }
      }
    }
  }
  attr {
    key: "dtype"
    value {
      type: DT_INT64
    }
  }
  attr {
    key: "value"
    value {
      tensor {
        dtype: DT_INT64
        tensor_shape {
        }
        int64_val: 0
      }
    }
  }
}
node {
  name: "train_step/Equal"
  op: "Equal"
  input: "train_step/FloorMod"
  input: "train_step/Equal/y"
  attr {
    key: "T"
    value {
      type: DT_INT64
    }
  }
  attr {
    key: "_output_shapes"
    value {
      list {
        shape {
        }
      }
    }
  }
  attr {
    key: "incompatible_shape_error"
    value {
      b: true
    }
  }
}
versions {
  producer: 134
}
